homework2/logs/2025-03-06_18-43-56_BSQPatchAutoEncoder/version_0/checkpoints/epoch=4-step=4105.ckpt (torch, 676803 bytes, 36 tensors)

model.encoder.patch_embed.weight f4 [128, 3, 5, 5]
0.13743113 0.033339743 0.05142223 0.13378482 0.04548972 0.039225586 0.12989135 0.0045025633
0.017010238 0.15455906 0.011135392 0.08376552 -0.047856316 0.024131374 0.020010116 0.07359798
0.050925713 0.003073396 0.07802184 0.066541106 0.08030706 0.121914774 0.07809437 0.05488347
-0.03514089 0.15023014 -0.03346708 0.019785741 0.13620253 0.08679834 0.014929238 -0.008067936
0.13433228 0.13180941 0.13596375 0.06615845 -0.020682829 0.065979846 -0.002377524 0.06940013
0.00038943006 0.016519897 0.050735816 0.09755778 0.17323531 -0.012562127 0.13449071 0.14118777
-0.024798866 0.016644493 0.007995009 0.14198694 -0.013774019 0.09402307 0.100916006 0.09353286
0.032998767 0.12551677 0.0632599 0.15984105 0.11820048 0.03475412 0.015942162 0.08312302
0.07309126 0.1575664 0.12445288 0.08650965 0.056070432 0.013831982 0.05697283 -0.020889
0.022175971 0.18791474 0.048232764 0.12827085 -0.033473443 0.12511604 0.064085014 0.03843861
0.032904383 -0.021715285 0.06277333 -0.01856433 0.08677364 -0.03495277 0.12205147 0.0688064
0.0027974977 0.11864456 0.007835729 0.07983145 0.111533 0.0018227822 -0.026176166 0.0009257916
0.068803854 -0.05567781 0.09322589 0.08525188 0.12484552 -0.017334849 -0.014132878 0.033784516
0.08578843 0.11704969 -0.05840946 0.1462585 -0.002458494 0.08731704 0.089840434 0.023687484
0.03322421 0.124971345 -0.057477914 -0.027075717 -0.06990053 0.10108668 0.06871821 0.090170644
-0.11557684 0.027209733 -0.050106898 -0.037951253 0.09653195 -0.08960563 -0.097446434 -0.05437429
-0.008471791 0.03352826 -0.03236627 -0.01954283 0.03733347 -0.0008472319 0.039214045 -0.034572214
-0.0034897497 -0.012838472 -0.059915584 -0.034046825 -0.049533557 -0.00840335 -0.10339717 -0.07288753
-0.102476984 -0.031516 0.059714023 -0.11991744 -0.0189362 0.049355756 0.109234855 0.017891625
-0.06827572 0.07916927 -0.06641104 0.07476094 0.04192516 0.009459618 -0.059309434 -0.0803478
0.06718477 0.04522083 0.06340859 0.10061531 -0.071992375 -0.07171853 0.042047597 0.05911497
0.055859495 -0.004510736 -0.056325313 0.09982181 0.008190468 0.044059716 0.045329954 0.11885019
0.0703492 0.09880167 0.09575707 0.051558632 0.17398712 0.13691574 0.12274118 0.07604042
0.103670456 0.032687426 -0.005944508 0.05431625 0.07613512 -0.06607873 0.13353767 0.0759049
0.052984104 -0.06979499 -0.07207011 -0.03890897 -0.0372144 0.14223292 -0.033498228 0.047540456
0.10411441 0.037567474 0.08308908 0.16087621 -0.041442215 0.03595471 0.1327213 0.051366434
0.002659359 -0.034995694 0.15427364 0.114546195 0.048312172 0.06816501 0.01071647 0.05900278
0.06591937 0.14935529 0.059155717 0.098148316 0.18368134 0.12010447 0.027627783 -0.023766851
0.13402225 0.056914855 -0.013540385 0.033728458 0.14767526 0.04307903 0.07209522 0.013100281
0.14052925 0.14623238 0.14250436 -0.0051935297 0.025791803 0.0014301762 0.17131843 0.106357776
0.105468445 -0.04702137 0.10584596 -0.026373692 0.07229913 0.04068365 0.12612638 -0.0037156283
0.17020997 0.009226106 -0.032705948 0.1281662 0.094703846 0.14053169 0.0065080216 -0.0047135623
00000000: bfba 0c3e 418f 083d 1ea0 523d e3fe 083e
00000010: 6e53 3a3d 02ab 203d 3d02 053e 3d8a 933b
00000020: 0e59 8b3c bb44 1e3e 3871 363c 428d ab3d
00000030: fc04 44bd 29af c53c 41ec a33c 8aba 963d
00000040: 7b97 503d 076b 493b eac9 9f3d b446 883d
00000050: 0778 a43d 74ae f93d f1ef 9f3d 7dcd 603d
00000060: e5ef 0fbd eed5 193e c714 09bd b515 a23c
00000070: ad78 0b3e 54c3 b13d c399 743c 602f 04bc
00000080: 678e 093e 0cf9 063e 153a 0b3e 157e 873d
00000090: 096f a9bc 7120 873d 3cd0 1bbb a821 8e3d
000000a0: 6b2c cc39 bc54 873c 5cd0 4f3d 60cc c73d
000000b0: 9964 313e 61d1 4dbc efb7 093e 8793 103e
000000c0: fe26 cbbc 085a 883c 80fd 023c 0665 113e
000000d0: 6cac 61bc 2b8f c03d 0dad ce3d 288e bf3d
000000e0: b729 073d 7887 003e 688e 813d 5fad 233e
000000f0: 1813 f23d 565a 0e3d 2399 823c 673c aa3d
00000100: dfb0 953d 1659 213e 27e1 fe3d f92b b13d
00000110: 1caa 653d 8a9f 623c 585c 693d 681f abbc
00000120: 62aa b53c b96c 403e b88f 453d 6f59 033e
00000130: 731b 09bd 6b1e 003e 013f 833d ce71 1d3d
00000140: bfc6 063d 41e4 b1bc 4e8f 803d 3914 98bc
00000150: 61b6 b13d a32a 0fbd 1ff6 f93d 5fea 8c3d
00000160: 3956 373b ebfb f23d 6e61 003c ac7e a33d
00000170: 6a6b e43d 6cea ee3a 666f d6bc d3b0 723a
00000180: 09e9 8c3d 6a0e 64bd 37ed be3d 8a98 ae3d
00000190: 02af ff3d d001 8ebc 968d 67bc a261 0a3d
000001a0: d8b1 af3d bfb7 ef3d c23e 6fbd cac4 153e
000001b0: af1e 21bb 47d3 b23d 43fe b73d 410c c23c
000001c0: 1c16 083d faf0 ff3d f66d 6bbd e5cd ddbc
000001d0: 0228 8fbd 8906 cf3d 22bc 8c3d 63ab b83d
000001e0: 8db3 ecbd f2e6 de3c e43c 4dbd c672 1bbd
000001f0: 8bb2 c53d 2883 b7bd ff91 c7bd 93b7 5ebd
00000200: 44cd 0abc ee54 093d 7e92 04bd 4918 a0bc
00000210: fbea 183d c518 5eba e89e 203d 989b 0dbd
00000220: 49b4 64bb 7458 52bc 0b6a 75bd af74 0bbd
00000230: b3e3 4abd 34ae 09bc e5c1 d3bd 0f46 95bd
00000240: 74df d1bd ec16 01bd b196 743d 4697 f5bd
00000250: 1720 9bbc 4329 4a3d 86b6 df3d 7591 923c
00000260: 24d4 8bbd 8023 a23d 8302 88bd 441c 993d
00000270: b7b9 2b3d 83fc 1a3c 73ee 72bd 638d a4bd
00000280: 2b98 893d 7a39 393d 5ddc 813d 660f ce3d
00000290: bd70 93bd 2ae1 92bd 1a3a 2c3d 8a22 723d
000002a0: edcc 643d ccce 93bb 5fb5 66bd 616f cc3d
000002b0: 5031 063c f677 343d e7ab 393d ba67 f33d
000002c0: 3e13 903d 8858 ca3d 481c c43d 252f 533d
000002d0: ae29 323e a433 0c3e ba5f fb3d 14bb 9b3d
000002e0: 2d51 d43d 40e3 053d 26ca c2bb b77a 5e3d
000002f0: bbec 9b3d 4954 87bd 19be 083e 0774 9b3d
00000300: dc05 593d adf0 8ebd 7e99 93bd 035f 1fbd
00000310: 206e 18bd 82a5 113e 7035 09bd c8b9 423d
00000320: f039 d53d 5ae0 193d 9c2a aa3d bcbc 243e
00000330: 50bf 29bd 3f45 133d 18e8 073e 9c65 523d
00000340: a448 2e3b a557 0fbd e9f9 1d3e 3297 ea3d
00000350: fce2 453d 199a 8b3d 2294 2f3c e6ac 713d
00000360: bc00 873d 98f0 183e 444d 723d fc01 c93d
00000370: f616 3c3e 55f9 f53d a953 e23c b3b2 c2bc
00000380: 213d 093e 8d1f 693d 7ed8 5dbc da26 0a3d
00000390: 2f38 173e a373 303d a9a6 933d 90a2 563c
000003a0: e6e6 0f3e f1bd 153e aaec 113e 7c2e aabb
000003b0: 5549 d33c c074 bb3a 196e 2f3e 1bd2 d93d
000003c0: d7ff d73d 7b99 40bd c4c5 d83d a40d d8bc
000003d0: 9111 943d e6a3 263d 4627 013e e681 73bb
000003e0: 864b 2e3e 1829 173c acf6 05bd 003e 033e
000003f0: 17f4 c13d 8ae7 0f3e 3e41 d53b 3a74 9abb

model.encoder.patch_embed.bias f4 [128]
0.079595976 0.061323084 0.045715164 0.05236866 -0.14101158 0.027752351 0.13134359 0.029422162
-0.33980048 -0.1339672 -0.19715267 -0.09336322 -0.69594723 -0.19325691 -0.32139418 -0.1268471
-0.2975786 -0.14497842 -0.0760274 -0.099460855 0.02525905 0.00500782 0.091516465 -0.1833685
-0.14134347 0.12441073 -0.08647486 0.08946941 -0.09763209 -0.16099338 -0.070248745 -0.114401594
0.057639617 -0.15226844 -0.08283358 0.035807803 0.08794032 -0.1511363 -0.16295472 -0.26924625
-0.0317435 0.12207062 -0.08969167 0.0806849 -0.031871997 -0.0045409 0.0941703 0.0014269355
0.1244612 -0.031494502 -0.29407856 -0.35648724 0.12660672 0.08924948 0.123932146 -0.026503397
-0.16895302 0.05260671 -0.36287138 -0.051843658 -0.12569349 -0.059873484 -0.03929196 -0.079805166
-0.08843231 -0.1274265 -0.15469961 0.017099904 -0.16924466 0.15068175 -0.3259863 0.03965796
-0.06709892 -0.1126004 -0.2018569 -0.097979 -0.13291346 -0.7151687 -0.12768193 -0.04646243
-0.1437501 -0.054155916 -0.1628161 -0.015177652 0.2915121 -0.0048928075 -0.1512654 -0.17363656
-0.13269617 -0.08105081 -0.051790576 -0.11146607 -0.010702021 -0.11951631 -0.122829296 0.18165526
-0.052705456 -0.013175803 -0.04545984 -0.08237665 -0.16164486 -0.08511447 -0.10191809 -0.1472017
-0.16518673 0.10442394 -0.022903789 0.08945963 -0.09214029 -0.12793097 -0.09890199 0.07171878
-0.012392954 -0.26854914 -0.03343915 -0.02168511 0.022278216 -0.0037343656 -0.20545407 0.019392582
0.049402226 0.0054132068 -0.19217502 -0.12641709 0.09696306 -0.37305033 -0.14994471 -0.08553103
00000000: 3703 a33d ea2d 7b3d d33f 3b3d 8580 563d
00000010: 5765 10be e658 e33c ef7e 063e bf06 f13c
00000020: 54fa adbe b32e 09be 64e2 49be 3735 bfbd
00000030: 9929 32bf 24e5 45be c78d a4be 35e4 01be
00000040: 395c 98be 3975 14be 41b4 9bbd 22b2 cbbd
00000050: 11ec ce3c a418 a43b fc6c bb3d f4c4 3bbe
00000060: 58bc 10be 0ecb fe3d bb19 b1bd bd3b b73d
00000070: 55f3 c7bd 73db 24be 93de 8fbd 624b eabd
00000080: 8517 6c3d 42ec 1bbe a7a4 a9bd 34ab 123d
00000090: 0e1a b43d 79c3 1abe 9add 26be a5da 89be
000000a0: 7905 02bd 2900 fa3d 44b0 b7bd 203e a53d
000000b0: 368c 02bd d4cb 94bb 5cdc c03d 0308 bb3a
000000c0: 83e5 fe3d 6100 01bd 7791 96be 7f85 b6be
000000d0: 31a5 013e 6ec8 b63d 23d0 fd3d a71d d9bc
000000e0: 0502 2dbe 227a 573d 47ca b9be 045a 54bd
000000f0: cbb5 00be e63d 75bd 9bf0 20bd e470 a3bd
00000100: 001c b5bd 187c 02be 9369 1ebe 1915 8c3c
00000110: 794e 2dbe 514c 1a3e ade7 a6be 6370 223d
00000120: 296b 89bd 0a9b e6bd 93b3 4ebe 37a9 c8bd
00000130: 771a 08be 4c15 37bf 0dbf 02be 644f 3ebd
00000140: 3a33 13be 98d2 5dbd 44b9 26be b0ab 78bc
00000150: 1341 953e d853 a0bb 51e5 1abe c8cd 31be
00000160: 81e1 07be f8fd a5bd 5b22 54bd 5348 e4bd
00000170: 8857 2fbc f8c4 f4bd ed8d fbbd d603 3a3e
00000180: ade1 57bd 53df 57bc 1934 3abd 17b5 a8bd
00000190: 3b86 25be 7f50 aebd 6eba d0bd 0bbc 16be
000001a0: b626 29be 38dc d53d baa0 bbbc 9c36 b73d
000001b0: 0cb4 bcbd 5600 03be 208d cabd 4ce1 923d
000001c0: d10b 4bbc 467f 89be 7df7 08bd f9a4 b1bc
000001d0: ce80 b63c 42bc 74bb 8d62 52be 31dd 9e3c
000001e0: fd59 4a3d 4561 b13b 87c9 44be 7b73 01be
000001f0: 9294 c63d 7400 bfbe 1b8b 19be e52a afbd

model.encoder.process.1.weight f4 [128, 128, 1, 1]
0.02556365 -0.087446325 -0.101164915 -0.07702406 -0.016472602 -0.04467119 -0.06877769 -0.10334819
-0.13670494 0.026697904 0.04625418 0.1434753 0.20138836 -0.079853736 0.08286099 -0.046614464
0.01487123 -0.069402196 -0.07333789 -0.053675156 -0.012543661 0.022093749 0.0043213624 -0.07094058
-0.03431054 0.031146217 0.0021978307 -0.022437029 -0.007822485 -0.020891493 0.024748005 -0.007899492
-0.031756364 0.0596561 -0.0029736161 -0.022381147 0.0587251 -0.023663163 -0.13351008 0.03355356
0.046859637 0.010567143 -0.15978296 -0.024915012 -0.045605857 -0.0739949 -0.06537732 0.03956109
-0.028228778 -0.028545206 -0.066851914 0.003180044 0.0028509977 0.060071107 0.014571441 -0.05091135
-0.009937348 0.0415425 0.00787106 -0.10471527 -0.06767923 0.07231492 0.014845908 0.08844332
0.074617684 -0.081489414 0.055620227 -0.068711884 -0.119834386 -0.056965545 0.26394305 -0.05005953
-0.11181176 -0.05408964 -0.05061321 0.049424056 0.07885967 0.15927625 -0.019605916 -0.0095851375
-0.0072208326 0.078175664 0.05202742 -0.03431669 0.13551456 0.07274258 -0.04458401 -0.06341648
0.06308309 -0.09370227 0.089187056 0.053124025 0.03122493 -0.054285284 0.061005723 0.08657605
-0.0032685944 -0.015764032 0.050006196 -0.011104637 -0.07416851 -0.08805273 -0.005067695 -0.15203817
-0.103471726 0.051054966 -0.06118412 -0.086072244 -0.21156721 -0.12535448 -0.064210236 0.017375166
-0.18081076 -0.03281161 0.021513704 0.011816911 -0.109775685 -0.0006048478 -0.048940368 0.07366016
-0.039693806 0.04446779 -0.07898067 -0.062472526 -0.060762346 -0.03926966 -0.039876405 0.05607642
-0.09433225 0.013850336 -0.09738729 -0.08606584 -0.077668935 0.010916489 -0.023404539 0.07777234
0.009903326 0.10254426 -0.04307698 0.0015504668 0.11590177 -0.1326113 -0.011857076 -0.08694253
0.021992333 -0.008683836 0.021692356 -0.023604224 0.035395015 -0.1999774 0.05275848 0.0075243926
-0.03838983 -0.067751296 0.042763002 0.022562675 -0.07339698 -0.01724056 -0.10984867 0.04707087
0.08743154 -0.025936121 -0.04812171 -0.077107586 -0.01703021 -0.08782582 -0.0043733693 0.032168567
0.18177217 -0.027114123 -0.081697166 -0.023166979 -0.11864234 -0.083952464 0.07874236 -0.056095928
-0.04330653 0.04316006 0.09945357 -0.06466772 0.037552133 0.023136443 0.05800237 -0.018003795
-0.23466057 -0.041610703 -0.022754766 -0.07266733 -0.0004562792 -0.06427419 -0.072226256 0.06716723
0.0028602486 0.020572854 -0.09538777 -0.025380433 -0.03089732 0.0566946 0.15476991 0.039715227
-0.010135499 -0.025342109 -0.0381029 -0.026999021 -0.06903258 0.20332816 0.0019754563 0.027846191
0.025276579 -0.036287088 -0.14303514 -0.08049181 -0.042094596 0.007034703 -0.020746179 -0.13069995
0.04634273 0.015668022 0.003544937 -0.015887048 -0.0040543647 -0.111806095 -0.04430754 0.0044302065
0.062921785 0.067253664 -0.027377188 -0.063206255 -0.1101904 -0.06770995 0.018249104 -0.084396735
-0.11342246 -0.011697905 0.03189354 -0.055358086 -0.118646726 -0.06326023 -0.06303653 0.035004
0.02874266 0.0046457164 -0.09884414 -0.013575188 0.042743973 0.008260207 0.026224744 -0.034923453
0.11372958 -0.08874425 0.03840225 -0.12026057 0.013939204 0.11294707 -0.1065636 -0.0676858
00000000: dc6a d13c 0f17 b3bd 8d2f cfbd cabe 9dbd
00000010: 8df1 86bc 23f9 36bd 51db 8cbd 37a8 d3bd
00000020: 61fc 0bbe 90b5 da3c 0675 3d3d 30eb 123e
00000030: c038 4e3e 5b8a a3bd 06b3 a93d cfee 3ebd
00000040: 76a6 733c bd22 8ebd 2d32 96bd 7bda 5bbd
00000050: ed83 4dbc f3fd b43c 379a 8d3b 4b49 91bd
00000060: 3589 0cbd 5a26 ff3c 7b09 103b dccd b7bc
00000070: e129 00bc a324 abbc 54bc ca3c df6c 01bc
00000080: f612 02bd f459 743d 00e1 42bb ab58 b7bc
00000090: bb89 703d 40d9 c1bc deb6 08be 756f 093d
000000a0: e4ef 3f3d cf21 2d3c 259e 23be 911a ccbc
000000b0: 35cd 3abd a38a 97bd 8be4 85bd cf0a 223d
000000c0: 0a40 e7bc a3d7 e9bc a8e9 88bd 4968 503b
000000d0: ced7 3a3b 1f0d 763d 0ebd 6e3c 6b88 50bd
000000e0: 42d0 22bc 7828 2a3d 9ef5 003c f674 d6bd
000000f0: 689b 8abd d819 943d 403c 733c c521 b53d
00000100: 28d1 983d ece3 a6bd 09d2 633d d1b8 8cbd
00000110: bb6b f5bd b454 69bd 8b23 873e 390b 4dbd
00000120: 90fd e4bd 198d 5dbd cc4f 4fbd e170 4a3d
00000130: 2e81 a13d 5019 233e 969c a0bc fb0a 1dbc
00000140: bc9c ecbb 901a a03d b41a 553d a88f 0cbd
00000150: 54c4 0a3e 10fa 943d b99d 36bd 80e0 81bd
00000160: b531 813d fae6 bfbd b4a7 b63d 9498 593d
00000170: 6dcb ff3c 3f5a 5ebd 23e1 793d c94e b13d
00000180: ea35 56bb 9223 81bc 4cd3 4c3d 39f0 35bc
00000190: a9e5 97bd fd54 b4bd e80e a6bb e5af 1bbe
000001a0: fce8 d3bd 031f 513d 339c 7abd a546 b0bd
000001b0: 13a5 58be ed5c 00be a880 83bd 5d56 8e3c
000001c0: 7526 39be 7765 06bd 823d b03c b89b 413c
000001d0: 13d2 e0bd a68e 1eba b275 48bd 23db 963d
000001e0: f995 22bd db23 363d 9ec0 a1bd 31e3 7fbd
000001f0: f0e1 78bd 39d9 20bd 7155 23bd 63b0 653d
00000200: 4431 c1bd 85ec 623c fd72 c7bd 4a43 b0bd
00000210: e410 9fbd 13db 323c e0ba bfbc 1b47 9f3d
00000220: 8f41 223c ba02 d23d 7d71 30bd 0839 cb3a
00000230: e85d ed3d 42cb 07be 2e44 42bc ed0e b2bd
00000240: 4429 b43c a646 0ebc 2bb4 b13c a55d c1bc
00000250: 5dfa 103d e0c6 4cbe 4719 583d 2e8f f63b
00000260: a83e 1dbd 31c1 8abd 4228 2f3d 5cd5 b83c
00000270: 2851 96bd 133c 8dbc 57f8 e0bd 62cd 403d
00000280: 4f0f b33d fd77 d4bc 451b 45bd 95ea 9dbd
00000290: f082 8bbc 06de b3bd 7b4e 8fbb 30c3 033d
000002a0: 7c22 3a3e 701e debc d850 a7bd adc8 bdbc
000002b0: c1fa f2bd 45ef abbd ad43 a13d d8c4 65bd
000002c0: 3062 31bd 9ac8 303d 50ae cb3d 8270 84bd
000002d0: 44d0 193d a388 bd3c e593 6d3d b27c 93bc
000002e0: dc4a 70be fc6f 2abd 3468 babc 9cd2 94bd
000002f0: c238 efb9 30a2 83bd 5ceb 93bd f98e 893d
00000300: 0273 3b3b 6788 a83c aa5a c3bd a0ea cfbc
00000310: 601c fdbc 9938 683d 017c 1e3e 6fac 223d
00000320: 5d0f 26bc 419a cfbc c911 1cbd 0d2d ddbc
00000330: f460 8dbd 4235 503e a876 013b b21d e43c
00000340: d410 cf3c c5a1 14bd ce77 12be e4d8 a4bd
00000350: 626b 2cbd 5e83 e63b e4f3 a9bc 35d6 05be
00000360: e0d1 3d3d 395a 803c 2c52 683b 8e25 82bc
00000370: 7ada 84bb 98fa e4bd d37b 35bd 442b 913b
00000380: 23dd 803d 4abc 893d 2046 e0bc 4872 81bd
00000390: 81ab e1bd 84ab 8abd 257f 953c 32d8 acbd
000003a0: 094a e8bd 92a8 3fbc cda2 023d 29bf 62bd
000003b0: 0efd f2bd 948e 81bd 4c19 81bd 5b60 0f3d
000003c0: ba75 eb3c 183b 983b cc6e cabd 776a 5ebc
000003d0: 4e14 2f3d d255 073c 46d5 d63c e50b 0fbd
000003e0: 0eeb e83d 8cbf b5bd ad4b 1d3d 2c4b f6bd
000003f0: 4261 643c cb50 e73d 043e dabd da9e 8abd

model.encoder.process.1.bias f4 [128]
-0.01795494 -0.0015372863 0.034323968 0.022233978 -0.066205196 0.021181688 0.027762286 0.008799727
0.050391994 -0.0067962036 -0.0072485795 -0.03139649 0.00092295784 -0.08476247 -0.01063945 0.083153516
0.030859232 -0.08383545 -0.016215427 0.064970925 -0.03386325 -0.048085395 0.026939878 -0.018151255
0.016551001 -0.066238664 -0.08333069 -0.019091321 0.02234431 -0.056953683 -0.021435035 -0.06936617
-0.02014268 0.008545329 -0.02523356 0.027879186 0.08356463 -0.04342392 -0.11041892 0.08276593
-0.038088743 0.09829333 0.03602716 0.0997107 -0.07619831 -0.06988449 0.012477987 -0.024364565
0.06772422 -0.03091221 -0.053195562 -0.022945285 -0.014439387 -0.043102115 -0.023329759 -0.09287848
0.013537091 -0.09578647 -0.039171305 -0.012600035 -0.1082684 0.017111156 -0.062166896 0.0020748607
-0.017286291 -0.038824394 0.034700178 -0.021396464 0.012109742 -0.009962078 -0.048969954 -0.14935985
-0.11720715 0.010585221 0.020536203 -0.12457417 -0.029023604 -0.10969331 -0.042832207 0.09941265
0.06542634 0.023909114 0.049439024 0.023585651 0.06792859 -0.045372956 -0.07895418 -0.023865875
-0.07125357 -0.05577423 -0.074036755 0.003494341 0.036649976 -0.08404535 -0.079524785 0.05880282
-0.025109876 0.006433597 0.09047344 -0.015023307 0.0273037 0.016192157 -0.06292135 -0.08513517
0.014859131 0.012335431 -0.08791844 0.049995575 -0.05552823 0.05067598 -0.08679304 0.071167976
-0.016240189 0.042771228 -0.03423547 -0.048056655 -0.09728044 -0.10252342 0.0025366568 -0.064345464
0.106469624 -0.056815617 -0.06554243 -0.06298313 -0.084875196 0.0078122076 0.0918181 -0.02815141
00000000: 3d16 93bc c57e c9ba 4a97 0c3d 0824 b63c
00000010: 9796 87bd 3885 ad3c bc6d e33c bb2c 103c
00000020: d667 4e3d b0b2 debb 7e85 edbb 9b99 00bd
00000030: a7f2 713a f297 adbd 1651 2ebc 644c aa3d
00000040: 80cc fc3c ecb1 abbd 37d6 84bc 7a0f 853d
00000050: 31b4 0abd 31f5 44bd 05b1 dc3c f1b1 94bc
00000060: f795 873c 23a8 87bd 48a9 aabd 6765 9cbc
00000070: 6a0b b73c 4448 69bd 8798 afbc da0f 8ebd
00000080: 4302 a5bc b501 0c3c 9cb6 cebc e462 e43c
00000090: ef23 ab3d 48dd 31bd 5123 e2bd 2f81 a93d
000000a0: f102 1cbd 034e c93d 3791 133d 2035 cc3d
000000b0: dc0d 9cbd 991f 8fbd 7970 4c3c 3298 c7bc
000000c0: ffb2 8a3d 9a3b fdbc 97e3 59bd c0f7 bbbc
000000d0: 2e93 6cbc d88b 30bd 0d1e bfbc 1337 bebd
000000e0: adca 5d3c b22b c4bd 1772 20bd 6170 4ebc
000000f0: d3bb ddbd b22c 8c3c b7a2 7ebd 63fa 073b
00000100: fb9b 8dbc 5406 1fbd c621 0e3d a347 afbc
00000110: f067 463c fc37 23bc b894 48bd caf1 18be
00000120: 4d0a f0bd a36d 2d3c 8a3b a83c be20 ffbd
00000130: e9c2 edbc e3a6 e0bd d370 2fbd dc98 cb3d
00000140: 3ffe 853d 0cdd c33c 9380 4a3d b236 c13c
00000150: 251e 8b3d fed8 39bd bbb2 a1bd 5e82 c3bc
00000160: 64ed 91bd 8573 64bd 95a0 97bd 5001 653b
00000170: 491e 163d f81f acbd e4dd a2bd 3adb 703d
00000180: 3ab3 cdbc ecd0 d23b 244a b93d 5124 76bc
00000190: 02ac df3c 6aa5 843c e9dc 80bd 595b aebd
000001a0: b673 733c 8c1a 4a3c 950e b4bd 29c8 4c3d
000001b0: 9271 63bd 9e91 4f3d 8dc0 b1bd 84c0 913d
000001c0: 250a 85bc e230 2f3d 7e3a 0cbd 0ed7 44bd
000001d0: f83a c7bd ccf7 d1bd 0a3e 263b 8ec7 83bd
000001e0: bf0c da3d 7eb7 68bd 1c3b 86bd 4dfd 80bd
000001f0: 0cd3 adbd 8cfd ff3b 210b bc3d c99d e6bc

model.decoder.process.0.weight f4 [128, 128, 1, 1]
-0.08534914 0.022832138 -0.05757105 -0.033626057 -0.052828465 0.1097244 0.098852605 0.008206952
0.0818912 0.022096092 0.03832499 -0.01822696 -0.120218925 -0.10853253 0.10203595 -0.030911852
0.018362638 0.006903625 -0.02040114 -0.045194503 -0.101387545 0.04079969 -0.1081298 -0.069029614
0.00046496978 0.035273474 -0.10619117 -0.09576415 0.07938889 -0.02100649 0.007568301 0.006995604
0.07844099 -0.058733527 0.084863074 0.05803838 -0.024683189 -0.0024596588 -0.060842626 0.017166039
0.07253716 0.030637579 -0.086659305 0.01093517 -0.09112939 -0.065220796 -0.040770955 -0.07135763
-0.12808825 0.0016566591 0.054938234 0.08882372 -0.09322956 0.015724558 0.03392067 -0.0058705113
0.07421036 0.027801268 0.080094926 -0.06816934 -0.08627724 0.048112653 0.053383797 -0.0023666783
-0.032976467 0.12280391 0.018143652 -0.03343753 0.011681936 -0.061693773 -0.013185924 -0.0037223543
-0.007582063 -0.039336536 0.062501624 0.018082712 0.00050209893 -0.024879877 -0.0129001755 0.004690314
0.013371019 0.05888137 -0.14722706 -0.009739847 0.06431423 0.09153776 -0.011664809 -0.044849463
0.006448575 0.024983551 0.041017294 -0.035992634 -0.0007618727 -0.08732028 -0.08105087 -0.011985886
0.061279133 -0.016613528 -0.04022127 -0.027718 0.0445792 -0.008541552 0.019877324 0.033611953
0.069090724 -0.043091193 0.027700614 -0.08621964 0.02336903 -0.019086624 0.025586603 0.04754119
0.057765733 0.059337802 0.005863096 0.12104439 0.11101073 0.010009442 -0.018829912 0.06422313
0.0859662 0.016515505 0.03442815 -0.07726585 0.012204874 0.012359793 0.040563382 -0.07788543
-0.17379518 -0.04813066 0.054020643 0.08976066 -0.054987688 0.0026954983 0.05584211 0.0069769486
0.078603424 -0.023216043 0.025165966 -0.03887794 0.0072941952 -0.05743588 0.18453391 0.023271637
-0.014233849 -0.0056149806 -0.06276133 -0.0009260563 -0.03471057 -0.08878889 -0.04600191 -0.06413626
-0.024159135 -0.08652868 -0.114548154 -0.069207 0.06403185 0.07024874 -0.044324514 0.08754853
0.06290775 0.030026572 0.040471938 0.004982621 0.032035872 0.029029053 0.11117544 -0.01092807
-0.073075525 0.034512065 -0.06862047 0.007135571 -0.0177165 0.050353352 0.13002537 -0.01671493
0.037424557 -0.040965904 0.051049452 -0.019183239 -0.094497465 -0.0041481107 0.05087692 0.026045064
0.017425306 0.068077326 -0.004717245 0.01752298 -0.009637073 0.17232405 0.008195179 -0.02581399
-0.09298791 -0.04706769 -0.014112608 -0.023964899 -0.09350749 -0.03245515 -0.0465539 0.10370715
-0.052797098 -0.0034531525 0.095157295 0.03672459 -0.018035715 -0.016562715 -0.10567976 -0.0123476265
0.07642249 -0.070451535 -0.07068413 -0.039340794 0.08880896 0.034692857 0.08758317 -0.009217283
-0.044012047 0.08598471 -0.035243083 0.10075845 -0.08390437 -0.03758191 0.013217395 -0.08715595
0.028306149 -0.021121789 0.11570607 0.005512479 0.005426606 0.09480978 -0.11838438 0.04744258
0.004036304 -0.02972883 -0.03111336 -0.12813266 -0.0012755848 -0.05477226 -0.027759964 -0.076047145
0.00724446 0.030964164 0.014691193 0.07021018 0.09417573 0.00927525 -0.060336057 0.08021388
-0.008204056 -0.008515937 0.012997903 -0.03429868 0.08774324 -0.057212405 -0.0041816817 -0.06950627
00000000: 88cb aebd 770a bb3c 9fcf 6bbd 7abb 09bd
00000010: a962 58bd 30b7 e03d 3c73 ca3d 7476 063c
00000020: 93b6 a73d dd02 b53c aafa 1c3d b550 95bc
00000030: 5735 f6bd 4e46 debd 39f8 d03d da3a fdbc
00000040: 3e6d 963c ce37 e23b 4b20 a7bc df1d 39bd
00000050: 46a4 cfbd 931d 273d 2873 ddbd 665f 8dbd
00000060: 30c7 f339 eb7a 103d c27a d9bd ff1f c4bd
00000070: a496 a23d cd15 acbc 83ff f73b 613b e53b
00000080: aba5 a03d 9192 70bd b1cc ad3d a7b9 6d3d
00000090: 6634 cabc 3a32 21bb 1e36 79bd cb9f 8c3c
000000a0: 5d8e 943d a9fb fa3c 6f7a b1bd 6d29 333c
000000b0: 0ca2 babd 7b92 85bd 72ff 26bd f323 92bd
000000c0: 9129 03be 4124 d93a ea06 613d 36e9 b53d
000000d0: 24ef bebd cad0 803c 67f0 0a3d 6b5d c0bb
000000e0: 9afb 973d 7cbf e33c cf08 a43d 5e9c 8bbd
000000f0: 1fb2 b0bd c611 453d f8a8 5a3d 461a 1bbb
00000100: 5512 07bd 9e80 fb3d ffa1 943c cbf5 08bd
00000110: 9765 3f3c 9cb2 7cbd c609 58bc bef2 73bb
00000120: f472 f8bb 591f 21bd da00 803d 3222 943c
00000130: 4a9f 033a e2d0 cbbc 425b 53bc 35b1 993b
00000140: 1e12 5b3c 972d 713d b1c2 16be e193 1fbc
00000150: 2eb7 833d 2678 bb3d c11d 3fbc 12b4 37bd
00000160: 914e d33b 4eaa cc3c c001 283d 036d 13bd
00000170: 69b8 47ba fad4 b2bd 00fe a5bd 7360 44bc
00000180: d4ff 7a3d 1819 88bc 0fbf 24bd dc10 e3bc
00000190: ae98 363d def1 0bbc c5d5 a23c b0ac 093d
000001a0: 707f 8d3d 6480 30bd 66ec e23c ec93 b0bd
000001b0: 6870 bf3c 8d5b 9cbc ff9a d13c 8dba 423d
000001c0: c39b 6c3d 320c 733d 371f c03b 1fe6 f73d
000001d0: 9859 e33d a5fe 233c 3041 9abc 6b87 833d
000001e0: 0c0f b03d 864b 873c 8804 0d3d 8f3d 9ebd
000001f0: f4f6 473c bb80 4a3c ca25 263d 6582 9fbd
00000200: 5df7 31be a824 45bd c044 5d3d 70d4 b73d
00000210: c53a 61bd f5a6 303b b2ba 643d e39e e43b
00000220: d5fa a03d 922f bebc db28 ce3c 7a3e 1fbd
00000230: 2504 ef3b e341 6bbd 75f6 3c3e 29a4 be3c
00000240: 1735 69bc dffd b7bb 0389 80bd 96c2 72ba
00000250: ac2c 0ebd f3d6 b5bd 806c 3cbd df59 83bd
00000260: 61e9 c5bc f335 b1bd 3998 eabd 66bc 8dbd
00000270: 2123 833d 92de 8f3d 9f8d 35bd a54c b33d
00000280: c7d5 803d 49fa f53c e7c5 253d 4145 a33b
00000290: 0c38 033d 56ce ed3c f3af e33d a60b 33bc
000002a0: 9fa8 95bd 865c 0d3d e488 8cbd 82d1 e93b
000002b0: 3222 91bc 513f 4e3d 5f25 053e c0ed 88bc
000002c0: 7e4a 193d ddcb 27bd 3b19 513d 2b26 9dbc
000002d0: e387 c1bd e0ec 87bb 5164 503d 755c d53c
000002e0: 84bf 8e3c 206c 8b3d 1f93 9abb 5a8c 8f3c
000002f0: d0e4 1dbc b775 303e 1245 063c dc77 d3bc
00000300: 7270 bebd 0dca 40bd 9138 67bc 0952 c4bc
00000310: db80 bfbd b1ef 04bd 4daf 3ebd 6a64 d43d
00000320: c541 58bd 494e 62bb d4e1 c23d 866c 163d
00000330: a3bf 93bc 88ae 87bc a16e d8bd b34d 4abc
00000340: 6583 9c3d e548 90bd d7c2 90bd d023 21bd
00000350: 79e1 b53d 191a 0e3d ce5e b33d 1604 17bc
00000360: fa45 34bd c018 b03d 0d5b 10bd 725a ce3d
00000370: 0ed6 abbd 7def 19bd c68d 583c d27e b2bd
00000380: 4ce2 e73c 9a07 adbc 4ef7 ec3d 07a2 b43b
00000390: acd1 b13b a12b c23d 8373 f2bd 2753 423d
000003a0: f942 843b e089 f3bc 72e1 febc 3535 03be
000003b0: 8631 a7ba e158 60bd dd68 e3bc 9bbe 9bbd
000003c0: ef62 ed3b 8fa8 fd3c 54b3 703c 5bca 8f3d
000003d0: 35df c03d 38f7 173c f122 77bd 2d47 a43d
000003e0: 4e6a 06bc 6e86 0bbc 28f5 543c c67c 0cbd
000003f0: bab2 b33d 8e57 6abd 7d06 89bb 4e59 8ebd

model.decoder.process.0.bias f4 [128]
-0.013101045 -0.11692966 -0.058341764 -0.07966385 -0.029876022 -0.11563727 0.049695667 0.01592322
0.019276066 -0.054425027 -0.021110477 -0.09477703 -0.14661378 -0.11626439 -0.107475266 -0.15643443
-0.17311613 -0.0473135 -0.15738012 -0.11541213 -0.10769096 0.012460041 0.0012305042 -0.011256011
-0.08581527 -0.14142108 0.018543867 -0.047257464 -0.039470788 0.0072297356 -0.015970035 -0.25557598
0.021255733 0.048955865 -0.33627513 0.023892341 -0.036717214 -0.15301062 -0.22231065 -0.007623043
-0.02353049 -0.058936443 0.011273352 -0.13375169 -0.096665904 -0.050684154 -0.07506715 -0.03399669
-0.021896549 0.06330352 -0.018829562 -0.09374042 -0.073609464 -0.11128523 -0.017417613 0.070577785
-0.023275962 -0.14830688 -0.1438461 -0.13047892 -0.050719228 -0.06556537 -0.08406345 -0.13416097
-0.15128602 -0.16362816 -0.10598852 0.036837503 -0.13960692 0.034483943 -0.03325604 -0.04056223
0.02297972 0.035917547 -0.12505195 -0.048643544 -0.18910414 -0.00048041105 -0.16500935 -0.14157933
-0.04786966 -0.08852991 0.012079167 -0.06175004 -0.104794346 -0.18336585 0.038301665 -0.18403569
-0.06439243 -0.087427616 -0.19101658 -0.121358454 -0.021911038 -0.06923766 -0.14570378 -0.09060287
-0.105795614 -0.035462283 -0.0006631813 0.011478227 -0.097220205 -0.08849338 -0.046679687 -0.18609536
-0.12906832 -0.11092331 -0.06493814 -0.013859026 -0.12801212 -0.04587676 -0.039520826 -0.10679114
-0.085739106 -0.25252473 -0.06581352 0.008381167 -0.17955787 0.021648696 -0.132582 -0.053419113
0.06566439 -0.12397998 -0.109852284 0.038304016 -0.041055914 -0.19771104 -0.113224916 0.0002542126
00000000: c4a5 56bc d178 efbd c6f7 6ebd cd26 a3bd
00000010: 8fbe f4bc 3cd3 ecbd af8d 4b3d 6a71 823c
00000020: d7e8 9d3c c7ec 5ebd e1ef acbc 761a c2bd
00000030: ec21 16be 061c eebd fe1b dcbd 5930 20be
00000040: 5b45 31be cdcb 41bd 4128 21be 325d ecbd
00000050: 148d dcbd 3325 4c3c df48 a13a 226b 38bc
00000060: ebbf afbd b0d0 10be 4fe9 973c 0b91 41bd
00000070: 1fac 21bd 6be7 ec3b 97d3 82bc dbda 82be
00000080: 8120 ae3c f285 483d 412c acbe dfb9 c33c
00000090: ca64 16bd d1ae 1cbe 67a5 63be b8ca f9bb
000000a0: 04c3 c0bc 5767 71bd deb3 383c 34f6 08be
000000b0: c6f8 c5bd 309a 4fbd cebc 99bd 1d40 0bbd
000000c0: 6460 b3bc 47a5 813d 7440 9abc fafa bfbd
000000d0: 8fc0 96bd 83e9 e3bd 62af 8ebc 168b 903d
000000e0: 3bad bebc c2dd 17be 644c 13be 449c 05be
000000f0: f7be 4fbd 2347 86bd 7529 acbd 7e61 09be
00000100: b9ea 1abe 248e 27be 8210 d9bd ece2 163d
00000110: 1ef5 0ebe 093f 0d3d 7c37 08bd 9524 26bd
00000120: f73f bc3c 471e 133d 9e0d 00be 743e 47bd
00000130: 84a4 41be aedf fbb9 36f8 28be 2cfa 10be
00000140: fa12 44bd 2b4f b5bd b3e7 453c 9ced 7cbd
00000150: 6b9e d6bd 42c4 3bbe 35e2 1c3d da73 3cbe
00000160: 2ee0 83bd 400d b3bd da99 43be c88a f8bd
00000170: c77e b3bc 79cc 8dbd 5f33 15be ff8d b9bd
00000180: 5fab d8bd e640 11bd 58d9 2dba 2c0f 3c3c
00000190: 631b c7bd 043c b5bd 3333 3fbd c88f 3ebe
000001a0: 7c2a 04be c32b e3bd 4afe 84bd f810 63bc
000001b0: 9c15 03be 45e9 3bbd 97e0 21bd 50b5 dabd
000001c0: fc97 afbd ec4a 81be 3dc9 86bd 2a51 093c
000001d0: 05de 37be 9b58 b13c 93c3 07be 00ce 5abd
000001e0: 0d7b 863d 37e9 fdbd 3cfa e0bd ace4 1c3d
000001f0: 3f2a 28bd c374 4abe 77e2 e7bd d647 8539

model.decoder.unpatch.weight f4 [128, 3, 5, 5]
-0.014935802 -0.06515266 -0.06003293 -0.07049314 0.0037038673 0.07775628 0.04422726 0.034256693
0.0779643 0.05288575 0.059843916 0.10353921 0.016278325 0.04861756 0.06533792 0.024517005
-0.03984073 0.019900862 0.12373416 -0.014538838 0.015127064 0.017497558 -0.06394595 0.021586085
0.0855162 -0.040223803 0.043162264 0.0064132144 -0.037883554 -0.02708647 -0.08427833 -0.059983406
-0.08044767 0.012076853 -0.005692548 -0.043753684 0.03473749 0.043480914 0.066713475 0.023802686
-0.001606454 -0.011717775 -0.082738794 -0.09009112 -0.026068376 -0.033859506 0.015738882 -0.05140567
-0.027243452 -0.026637089 0.044688527 0.053112186 -0.04623124 0.0051821694 0.039983727 0.07845998
-0.043763246 0.037653174 0.01507823 -0.023650382 0.100535676 -0.034104437 0.044614263 0.0019695717
0.0051332093 0.014057518 -0.035197344 -0.06817985 0.033083566 0.085528344 0.03312545 0.016599983
0.050352227 -0.08578977 -0.013912664 0.0736642 0.029180191 0.029397808 0.025693787 -0.033177342
-0.023478342 0.012682434 0.048915397 -0.0042684292 0.06910019 0.08551605 0.04895105 0.06424447
0.029014518 0.04376244 0.06925537 0.055031408 0.0031658856 0.08960077 0.040903673 0.06297875
-0.007696772 0.113009304 0.02790501 0.02783553 0.026067112 0.025258293 0.008616585 0.056376535
-0.047113933 0.04165888 0.001044716 0.0050847707 -0.042426344 -0.051696952 0.022119697 -0.065000944
0.0107335 0.024761999 0.0504697 0.0062808534 0.03470597 -0.026564253 0.02346225 0.03383653
0.06590831 -0.06010658 0.06616753 -0.021127963 0.030020945 0.05357303 0.04713558 0.050036702
0.08051726 0.10684312 0.09274058 0.08188254 0.041236825 0.101864345 0.065826304 0.017357739
0.031777244 0.07246978 0.09222726 0.08369186 0.04410301 0.0006677486 0.011257914 0.07262087
0.07996614 -0.02051757 0.04441225 -0.017607022 0.084915645 0.059564847 -0.026627343 -0.003630258
0.00081121066 -0.02713985 -0.040959235 -0.023858711 -0.025752885 0.038617264 0.027201818 -0.03276075
0.074374385 0.008331592 0.007502041 -0.032921076 -0.024445405 -0.027993418 -0.052488938 0.041683715
0.04503975 -0.0021934637 -0.006633684 -0.040837213 -0.04471186 -0.14168209 0.08297951 0.03510222
0.08659723 0.054682568 -0.018783396 0.011124587 -0.0060618967 0.09296336 -0.02518406 0.0077855107
-0.04203618 0.0837053 0.13614482 0.076524295 0.017325623 -0.05264766 0.04793321 0.08011502
0.024380699 -0.010269847 0.038937896 0.10854927 0.0007171065 0.011632958 0.048468 0.023953477
0.0066916053 -0.023207959 0.0036563124 -0.08580115 0.017259477 0.07257709 0.043882024 -0.014632294
-0.10938569 -0.06837762 0.011488489 0.043593798 -0.08549572 -0.0041060755 -0.0023672467 -0.009113047
0.034382027 -0.09052194 0.00028034384 -0.002102383 -0.018970879 0.03166614 -0.08900851 -0.038915444
-0.057123307 -0.024117349 -0.0087062195 -0.0011355141 -0.06898466 -0.0412162 -0.056408077 -0.009814213
0.007915748 0.008344856 -0.005737505 0.020498307 -0.021983258 0.017510539 -0.027600715 -0.04196
-0.00045649396 -0.05280607 0.02800504 -0.037960723 0.013518563 -0.009336731 -0.05549753 -0.022024833
-0.018231547 -0.020397995 0.0147558795 0.05914754 0.02699065 0.100023344 0.041321572 0.02880469
00000000: 4bb5 74bc c26e 85bd 17e5 75bd b55e 90bd
00000010: 95bc 723b af3e 9f3d a527 353d bf50 0c3d
00000020: bfab 9f3d ba9e 583d e51e 753d 5e0c d43d
00000030: 1f5a 853c 3523 473d e3cf 853d e3d7 c83c
00000040: 0930 23bd 2207 a33c 5668 fd3d 4e34 6ebc
00000050: 81d7 773c 0a57 8f3c 18f6 82bd 4dd5 b03c
00000060: 1e23 af3d b7c1 24bd eaca 303d f125 d23b
00000070: c92b 1bbd 72e4 ddbc 1e9a acbd 29b1 75bd
00000080: bfc1 a4bd fedd 453c 8e88 babb 1037 33bd
00000090: e648 0e3d 0b19 323d 13a1 883d dafd c23c
000000a0: a78f d2ba e9fb 3fbc f572 a9bd b181 b8bd
000000b0: 598d d5bc 44b0 0abd d4ee 803c c08e 52bd
000000c0: a92d dfbc 0636 dabc 510b 373d 2a8c 593d
000000d0: f85c 3dbd 30cf a93b fac5 233d a0af a03d
000000e0: 1741 33bd 373a 1a3d ae0a 773c 72be c1bc
000000f0: a6e5 cd3d 18b1 0bbd 72bd 363d ee13 013b
00000100: 7b34 a83b 8151 663c 172b 10bd e1a1 8bbd
00000110: a282 073d 7c29 af3d 8dae 073d b0fc 873c
00000120: 233e 4e3d 8cb2 afbd f1f1 63bc 42dd 963d
00000130: 4c0b ef3c acd3 f03c c77b d23c f7e4 07bd
00000140: a755 c0bc fcc9 4f3c 835b 483d 2ede 8bbb
00000150: 6784 8d3d 0a23 af3d e580 483d 9b92 833d
00000160: dbaf ed3c 3f40 333d c2d5 8d3d 9d68 613d
00000170: bf7a 4f3b 9c80 b73d 9c8a 273d 01fb 803d
00000180: 3435 fcbb 6c71 e73d 0c99 e43c 5607 e43c
00000190: b28a d53c 7bea ce3c 942c 0d3c 15eb 663d
000001a0: 8afa 40bd 80a2 2a3d daee 883a 269e a63b
000001b0: 3fc7 2dbd 2fc0 53bd 5e34 b53c 371f 85bd
000001c0: 90db 2f3c add9 ca3c 51b9 4e3d 9ecf cd3b
000001d0: d927 0e3d 479d d9bc e833 c03c 2c98 0a3d
000001e0: f0fa 863d 5132 76bd d882 873d 8d14 adbc
000001f0: 7cee f53c 656f 5b3d 3d11 413d 49f3 4c3d
00000200: 3ce6 a43d 91d0 da3d c6ee bd3d 08b2 a73d
00000210: f2e7 283d 419e d03d f1cf 863d d131 8e3c
00000220: db28 023d 096b 943d a5e1 bc3d a366 ab3d
00000230: 5ca5 343d da0b 2f3a 1d73 383c 40ba 943d
00000240: 4ac5 a33d 7714 a8bc 9fe9 353d 9a3c 90bc
00000250: 41e8 ad3d 45fa 733d 9621 dabc 9fe9 6dbb
00000260: 6da7 543a 6454 debc dfc4 27bd 5873 c3bc
00000270: b7f7 d2bc 232d 1e3d 59d6 de3c 2330 06bd
00000280: 9951 983d 3b81 083c aed3 f53b 40d8 06bd
00000290: bb41 c8bc 7452 e5bc a4fe 56bd 8bbc 2a3d
000002a0: 9a7b 383d 37c0 0fbb 605f d9bb ec44 27bd
000002b0: c923 37bd 1c15 11be 29f1 a93d 58c7 0f3d
000002c0: e359 b13d d4fa 5f3d a3df 99bc e643 363c
000002d0: e0a2 c6bb 9363 be3d cd4e cebc 991d ff3b
000002e0: 212e 2cbd af6d ab3d 8c69 0b3e c5b8 9c3d
000002f0: 77ee 8d3c 13a5 57bd 9d55 443d 5813 a43d
00000300: 08ba c73c dc42 28bc 587d 1f3d 144f de3d
00000310: 34fc 3b3a 2a98 3e3c 6286 463d 153a c43c
00000320: 4145 db3b 9e1e bebc be9e 6f3b 83b8 afbd
00000330: bf63 8d3c 4ca3 943d a3bd 333d 4abc 6fbc
00000340: 9b05 e0bd 9109 8cbd 373a 3c3c 698f 323d
00000350: 6118 afbd 428c 86bb cf23 1bbb e44e 15bc
00000360: 2bd4 0c3d 9163 b9bd 1dfb 9239 22c8 09bb
00000370: d168 9bbc 5bb4 013d 184a b6bd cd65 1fbd
00000380: 21fa 69bd bf91 c5bc 88a4 0ebc 88d5 94ba
00000390: d447 8dbd 51d2 28bd 280c 67bd cbcb 20bc
000003a0: 0eb1 013c ddb8 083c ae01 bcbb 11ec a73c
000003b0: 3c16 b4bc 4372 8f3c e51a e2bc 40de 2bbd
000003c0: 9555 efb9 2d4b 58bd d36a e53c b47c 1bbd
000003d0: f67c 5d3c 17f9 18bc 6151 63bd 6c6d b4bc
000003e0: 535a 95bc b219 a7bc a5c2 713c b144 723d
000003f0: 7f1b dd3c 0ad9 cc3d cf40 293d d0f7 eb3c

model.decoder.unpatch.bias f4 [3]
0.06675684 0.008402194 -0.073308825
00000000: cfb7 883d 5ba9 093c f022 96bd

model.bsq.down_proj.weight f4 [10, 128]
0.050679635 0.019648679 0.021078674 -0.061922 -0.106406696 -0.11032815 -0.012490888 0.00068130856
0.0345179 0.040268876 -0.039270803 0.024660485 -0.052285403 0.028795078 -0.044967916 -0.101010785
-0.05168359 0.07292837 0.03905423 -0.039170925 0.057923514 0.022706486 -0.10792753 -0.008005265
0.040869325 -0.05669596 0.12384862 0.02248111 0.0833102 -0.07285845 0.14634956 0.030139768
-0.07897492 0.024990715 -0.01390383 0.04928294 0.036403872 0.0892063 0.16372883 -0.0032206716
-0.01451063 -0.10733866 -0.07084495 -0.18000956 0.032463647 0.111558974 0.074888565 0.078078136
0.008704182 -0.039341874 0.08076747 0.096285716 -0.015124761 -0.06789723 0.18142927 0.051958874
0.031547364 0.09944599 0.0653651 -0.05056955 2.2977634e-05 0.037258085 0.06706272 0.020482464
-0.07638903 0.068679206 -0.08544658 -0.002480797 0.056014493 0.10429172 0.14244404 0.11754014
0.058627237 0.17427246 0.03201184 0.08913889 0.03798839 0.020986924 0.069360584 -0.09271066
0.052768692 0.073345065 0.0537946 -0.021388542 -0.12294217 0.041168932 -0.01529289 0.002751047
0.13296416 0.0026563408 0.077856645 0.071073145 -0.021402204 0.046308026 -0.04011021 0.027070284
-0.008697133 0.06352993 -0.060739502 -0.0007823055 0.020351691 -0.049862023 0.0250306 0.09285942
-0.04279587 -0.10168531 0.08679869 -0.06448442 -0.03424563 -0.0041521518 -0.026221493 0.033680603
-0.13184202 -0.009086901 -0.067036785 0.07513286 -0.0006615963 0.075807944 -0.029251467 0.03966238
-0.106638014 0.06369333 0.023216365 0.019873377 0.042077783 -0.038690228 0.014422198 0.0012497641
0.11254731 0.11286696 -0.024801398 -0.10671932 0.016442984 -0.060435034 0.060446113 0.041623406
-0.07818894 -0.051000677 0.09272934 0.049307585 -0.0248563 0.07476013 0.027648069 0.048556853
-0.19131646 0.013275707 0.023113184 -0.07849597 0.12928672 0.06524781 -0.09887655 0.042183742
-0.059483975 -0.0034139152 -0.14983107 0.2071369 0.0030077542 0.04893814 0.036125887 -0.027365956
-0.05266201 0.12805337 0.0011946681 -0.024865787 0.03930321 0.0216542 -0.03046967 0.06388191
0.18829404 0.0019030418 0.000108712295 -0.020288877 -0.12446553 0.006997714 -0.0015107091 0.022480043
-0.014631372 -0.08302414 0.03625488 -0.07446393 0.06277699 0.027347676 0.034017604 -0.072128296
-0.0040544155 -0.044809505 -0.021685278 -0.01068879 -0.013971684 -0.09950222 0.07059416 0.20307034
0.14249276 -0.06515328 -0.08767776 -0.123618275 0.015154576 0.035934195 0.088446654 0.014546604
0.0355022 -0.0015539747 0.07379787 0.1095458 -0.08821674 0.04267522 -0.021533461 0.010689424
0.19990909 0.039596085 -0.02089328 -0.2274207 -0.1553337 0.028187266 0.07905209 -0.09689713
0.04218988 0.1565289 -0.080103844 -0.009864291 0.14892599 0.053246677 -0.06191502 0.067074604
-0.023824217 -0.012905147 0.011729039 0.10488748 0.123559944 -0.06427037 0.076227255 0.06373335
0.014612947 -0.04915569 0.104721725 -0.0939693 -0.023243938 0.10285902 -0.055144824 -0.0537077
-0.088438295 0.004640789 0.033823807 -0.05448929 -0.07086291 -0.0029636764 -0.033106588 0.09953532
0.030973602 -0.15846774 0.2016288 -0.050222863 0.14604232 -0.009995617 0.015758803 -0.09300501
00000000: 7395 4f3d 44f6 a03c 2fad ac3c eca1 7dbd
00000010: c1eb d9bd baf3 e1bd 95a6 4cbc d899 323a
00000020: a462 0d3d faf0 243d 6cda 20bd c904 ca3c
00000030: 3829 56bd a8e3 eb3c 4730 38bd bede cebd
00000040: 2cb2 53bd 785b 953d 54f7 1f3d b171 20bd
00000050: 3541 6d3d f402 ba3c 1c09 ddbd 8428 03bc
00000060: 9866 273d 063a 68bd 58a4 fd3d 4e2a b83c
00000070: 8a9e aa3d d036 95bd a9dc 153e ade7 f63c
00000080: 9abd a1bd 54b9 cc3c e4cc 63bc e8dc 493d
00000090: 3a1c 153d cbb1 b63d 88a8 273e e711 53bb
000000a0: febd 6dbc 5fd4 dbbd 2817 91bd 6d54 38be
000000b0: 9af8 043d 0879 e43d 2d5f 993d 6ee7 9f3d
000000c0: fc9b 0e3c f224 21bd 6a69 a53d 7231 c53d
000000d0: d8cd 77bc b40d 8bbd 98c8 393e d4d2 543d
000000e0: cf37 013d 57aa cb3d 23de 853d 0422 4fbd
000000f0: 18c0 c037 ef9b 183d 2e58 893d d7ca a73c
00000100: da71 9cbd afa7 8c3d 9efe aebd de94 22bb
00000110: 746f 653d e696 d53d dadc 113e e3b8 f03d
00000120: 1d23 703d 7b74 323e d91e 033d 738e b63d
00000130: b799 1b3d c5ec ab3c ec0c 8e3d 16df bdbd
00000140: fc23 583d f035 963d ba57 5c3d 0637 afbc
00000150: 1bc9 fbbd c1a0 283d 088f 7abc e94a 343b
00000160: c227 083e 0116 2e3b 4e73 9f3d cc8e 913d
00000170: ad53 afbc 7cad 3d3d 9b4a 24bd 80c2 dd3c
00000180: 6b7e 0ebc fb1b 823d fcc9 78bd a213 4dba
00000190: 97b8 a63c 1f3c 4cbd f90c cd3c 142d be3d
000001a0: b94a 2fbd 6340 d0bd 83c3 b13d 6810 84bd
000001b0: 2545 0cbd c60e 88bb 75ce d6bc acf4 093d
000001c0: 9801 07be 3ae1 14bc 954a 89bd 42df 993d
000001d0: fa6e 2dba 3241 9b3d c6a0 efbc 0575 223d
000001e0: 0865 dabd a671 823d 3f30 be3c 7ecd a23c
000001f0: c159 2c3d a579 1ebd 154b 6c3c 20cf a33a
00000200: 347f e63d cb26 e73d 4d2c cbbc a98f dabd
00000210: 70b3 863c ba8a 77bd 5896 773d 4e7d 2a3d
00000220: 8621 a0bd 16e6 50bd e1e8 bd3d c0f6 493d
00000230: 709f cbbc d71b 993d 347e e23c 8de3 463d
00000240: 76e8 43be 5a82 593c dc57 bd3c 7fc2 a0bd
00000250: bd63 043e a5a0 853d ca7f cabd dcc8 2c3d
00000260: 78a5 73bd febb 5fbb 516d 19be b21b 543e
00000270: be1d 453b 5c73 483d bdf8 133d 922e e0bc
00000280: 1fb4 57bd 6c20 033e 6996 9c3a 56b3 cbbc
00000290: 67fc 203d 2664 b13c 889b f9bc 85d4 823d
000002a0: 27d0 403e 7d6f f93a 78fc e338 dc34 a6bc
000002b0: c9e7 febd 144d e53b fc02 c6ba 1128 b83c
000002c0: 6cb8 6fbc 8f08 aabd ff7f 143d 8c80 98bd
000002d0: 3991 803d 3c08 e03c 0b56 0b3d 00b8 93bd
000002e0: e7da 84bb 2c8a 37bd 53a5 b1bc 0920 2fbc
000002f0: 7de9 64bc d2c7 cbbd ac93 903d acf1 4f3e
00000300: 9fe9 113e 156f 85bd 6690 b3bd 942b fdbd
00000310: e64a 783c bc2f 133d 8523 b53d e154 6e3c
00000320: c16a 113d bdae cbba 5623 973d 8c59 e03d
00000330: faaa b4bd 36cc 2e3d f166 b0bc b222 2f3c
00000340: f8b4 4c3e 812f 223d 6228 abbc f9e0 68be
00000350: cc0f 1fbe fbe8 e63c 10e6 a13d 0172 c6bd
00000360: 4ccf 2c3d 1d49 203e 7c0d a4bd d69d 21bc
00000370: 0e80 183e 3019 5a3d 9b9a 7dbd 695e 893d
00000380: 012b c3bc 1c70 53bc 282b 403c 3fcf d63d
00000390: ff0c fd3d 2fa0 83bd 091d 9c3d a186 823d
000003a0: 246b 6f3c 7a57 49bd 5878 d63d fa72 c0bd
000003b0: 126a bebc c0a7 d23d 8adf 61bd 9bfc 5bbd
000003c0: 231f b5bd c211 983b d58a 0a3d 2930 5fbd
000003d0: 9320 91bd 3d3a 42bb c69a 07bd 2dd9 cb3d
000003e0: 5abc fd3c 5e45 22be c877 4e3e 7db6 4dbd
000003f0: 1e8c 153e a8c4 23bc 9b18 813c 6979 bebd

model.bsq.down_proj.bias f4 [10]
-0.030364728 0.034886267 -0.058371503 0.04452426 -0.009109999 0.0892561 -0.0002840474 0.027506623
0.025351834 0.09879066
00000000: 73bf f8bc e7e4 0e3d f516 6fbd 125f 363d
00000010: 1b42 15bc e7cb b63d 32ec 94b9 9255 e13c
00000020: a6ae cf3c c252 ca3d

model.bsq.up_proj.weight f4 [128, 10]
0.1359688 0.13242492 0.084828004 -0.09235077 -0.12321844 0.027472105 -0.14674224 -0.011481987
0.025021443 -0.106138885 -0.10525129 0.29410934 0.085346036 -0.23046327 0.11575582 -0.32485655
0.15652865 -0.026120272 -0.024962613 -0.011071312 0.063412614 0.13664109 0.28496584 -0.11651072
0.11057292 -0.25812763 0.02983061 0.036006384 0.064434014 -0.17918889 -0.07489038 0.071760826
0.023279706 0.22181778 0.05699936 -0.029129146 -0.2602844 -0.2763455 0.009819617 -0.04706568
-0.07981819 0.048680265 -0.14961483 -0.2826286 0.17287363 0.08035407 -0.2145595 0.17120495
0.14709347 0.13510959 0.035590116 -0.11926455 -0.079823315 0.048604466 -0.020674586 0.1444886
0.03435717 0.123305306 -0.17033474 -0.09977723 -0.061009347 0.045725103 0.22567835 0.14825845
0.24367578 -0.0011338493 0.05569969 0.15723369 -0.06976448 0.03140837 0.14045233 0.03159666
-0.26151276 0.1690144 -0.1034461 -0.10518528 -0.07121047 -0.01633355 -0.07133625 -0.19577062
-0.011328783 -0.19663158 -0.081508934 0.24726313 -0.08912615 -0.032641996 0.24487528 -0.16829851
-0.22859655 -0.20518476 0.21862191 -0.016269663 0.032792315 0.18314834 -0.22008416 0.0020156864
-0.07057858 0.18090269 -0.09164739 0.035732158 -0.20675078 0.07787227 0.08955528 0.08372046
0.12146532 -0.14205946 0.030292299 0.12014017 0.03853194 -0.12373077 -0.17340687 -0.23870361
-0.16201106 -0.06834241 0.22210729 0.24297488 -0.07871349 -0.042000555 -0.19849746 -0.22466286
-0.024097078 0.17953138 -0.100833625 -0.10644802 -0.17940374 0.03898206 -0.13844453 0.088189445
-0.10747191 -0.09551099 -0.18477713 0.06637707 0.12891291 -0.104385175 -0.10322889 -0.19257022
0.09628579 -0.031191729 -0.18946147 0.12725246 0.121201515 0.17488845 -0.23499633 0.11411497
0.02014552 -0.08592558 -0.0140064815 0.045795962 -0.1296678 0.32735044 0.03266794 -0.0008940449
-0.085537955 -0.13014685 -0.022234008 -0.015589026 -0.19748364 0.15472949 -0.059438787 0.08802467
-0.27051413 0.09154358 0.282911 0.23086736 -0.13525152 -0.2923777 0.043419372 -0.21628864
-0.027217427 0.22425056 -0.19100769 0.15605955 0.005649969 0.011494315 0.2855877 -0.030270007
0.14684084 0.18930246 -0.019866375 -0.09608363 0.26571825 -0.20336008 0.28286707 0.16329697
0.017787395 -0.06899386 0.031445812 -0.16481294 -0.04859673 0.31820932 0.17712544 -0.071032315
-0.25186968 0.009446922 -0.13031445 -0.21724702 -0.020436674 -0.09162802 0.074516766 -0.045779213
-0.08912325 -0.08222444 0.1743173 -0.14519837 0.083350144 -0.22190498 0.0835452 0.09564766
-0.018783249 -0.045786 -0.0055964924 0.2523997 -0.15724152 -0.07056632 -0.2134176 0.20819151
0.09698673 -0.2426911 -0.028300447 -0.047127392 -0.20148107 0.095611334 -0.28394634 0.057464465
-0.023538925 0.044295825 0.05656379 0.1907782 -0.14819218 -0.20843649 0.1959679 0.20144571
0.056802172 0.07370297 0.03991841 -0.08897374 0.1423193 -0.18341747 0.2253985 -0.015566364
-0.16957541 -0.068401955 0.11163284 -0.11510431 0.20660469 -0.08845296 -0.18558972 -0.14864768
-0.19818757 -0.088120416 0.13868074 -0.24179867 0.011921759 0.025612257 0.09090485 0.020706918
00000000: 683b 0b3e 669a 073e 4eba ad3d 6722 bdbd
00000010: f359 fcbd 2e0d e13c 9943 16be f21e 3cbc
00000020: c5f9 cc3c 585f d9bd fd8d d7bd 8095 963e
00000030: e7c9 ae3d 90fe 6bbe 6311 ed3d 9953 a6be
00000040: 0c49 203e 2efa d5bc 657e ccbc 7364 35bc
00000050: 79de 813d a4eb 0b3e 0be7 913e 2c9d eebd
00000060: 0e74 e23d 4e29 84be 535f f43c 6e7b 133d
00000070: fbf5 833d 4b7d 37be 2160 99bd 57f7 923d
00000080: 15b5 be3c 3324 633e 2978 693d 3fa0 eebc
00000090: ff43 85be 287d 8dbe 75e2 203c f1c7 40bd
000000a0: b877 a3bd f564 473d a134 19be b2b4 90be
000000b0: c905 313e ad90 a43d 7cb5 5bbe 5a50 2f3e
000000c0: ac9f 163e 2b5a 0a3e f1c6 113d f940 f4bd
000000d0: 687a a3bd 7a15 473d c05d a9bc d2f4 133e
000000e0: 1bba 0c3d 7e87 fc3d 3b6c 2ebe 0158 ccbd
000000f0: f0e4 79bd 3f4a 3b3d 3a18 673e 10d1 173e
00000100: 2586 793e ab9d 94ba 5c25 643d de01 213e
00000110: aee0 8ebd 10a6 003d bcd2 0f3e 806b 013d
00000120: 00e5 85be 1c12 2d3e 8ddb d3bd 616b d7bd
00000130: cbd6 91bd f0cd 85bc bd18 92bd 1878 48be
00000140: 5c9c 39bc ca59 49be 28ee a6bd 8c32 7d3e
00000150: c587 b6bd 9db3 05bd 96c0 7a3e 7256 2cbe
00000160: 3715 6abe f41b 52be 6cde 5f3e f547 85bc
00000170: 3c51 063d 3d8b 3b3e be5d 61be 9b19 043b
00000180: 818b 90bd 8e3e 393e a0b1 bbbd e25b 123d
00000190: 7ab6 53be 7f7b 9f3d c268 b73d a275 ab3d
000001a0: cfc2 f83d 0978 11be 8e27 f83c 0d0c f63d
000001b0: abd3 1d3d 8f66 fdbd 9291 31be b86e 74be
000001c0: 3ae6 25be 1bf7 8bbd 1870 633e 68ce 783e
000001d0: 8a34 a1bd c608 2cbd eb42 4bbe 050e 66be
000001e0: 3c67 c5bc 13d7 373e dc81 cebd 6b01 dabd
000001f0: 9db5 37be a7ab 1f3d 67c4 0dbe ab9c b43d
00000200: 3c1a dcbd 449b c3bd 3736 3dbe b4f0 873d
00000210: bf01 043e e5c7 d5bd ab69 d3bd 2131 45be
00000220: 7c31 c53d cc85 ffbc 3002 42be 784e 023e
00000230: 8038 f83d f515 333e e1a2 70be 1cb5 e93d
00000240: 3808 a53c c0f9 afbd 717b 65bc 8c94 3b3d
00000250: a3c7 04be 7a9a a73e d1ce 053d 565e 6aba
00000260: 862e afbd 3745 05be 1824 b6bc 1d69 7fbc
00000270: 2739 4abe 6871 1e3e 1676 73bd 4746 b43d
00000280: d480 8abe 337b bb3d b6d9 903e 7e68 6c3e
00000290: 607f 0abe 88b2 95be 83d8 313d c57a 5dbe
000002a0: 15f7 debc f0a1 653e 8597 43be 13ce 1f3e
000002b0: 6023 b93b a752 3c3c 8d38 923e cef8 f7bc
000002c0: 725d 163e 81d8 413e cfbe a2bc 7fc7 c4bd
000002d0: 390c 883e a03d 50be f4d3 903e 5237 273e
000002e0: dfb6 913c a74c 8dbd 53cd 003d b9c4 28be
000002f0: 5d0d 47bd 55ec a23e 5f60 353e 6479 91bd
00000300: 10f5 80be 43c7 1a3c 2771 05be 0176 5ebe
00000310: d06a a7bc 79a7 bbbd 3f9c 983d fc82 3bbd
00000320: 4086 b6bd 4a65 a8bd 3c80 323e e2ae 14be
00000330: 7bb3 aa3d 0f3b 63be bf19 ab3d ece2 c33d
00000340: 54df 99bc 1a8a 3bbd c862 b7bb 893a 813e
00000350: ec03 21be 1385 90bd 258a 5abe 2830 553e
00000360: fba0 c63d 0484 78be 57d6 e7bc a708 41bd
00000370: 0e51 4ebe e0cf c33d 6a61 91be dc5f 6b3d
00000380: b4d4 c0bc 8a6f 353d 6faf 673d 5c5b 433e
00000390: b1bf 17be 6070 55be cfab 483e c947 4e3e
000003a0: 65a9 683d 95f1 963d 7d81 233d dd37 b6bd
000003b0: 27bc 113e cad1 3bbe ddce 663e 100a 7fbc
000003c0: 2da5 2dbe 5316 8cbd c29f e43d cfbb ebbd
000003d0: 2e90 533e d326 b5bd 3b0b 3ebe 1937 18be
000003e0: aff1 4abe 7a78 b4bd 5302 0e3e 129a 77be
000003f0: 7b53 433c ccd0 d13c 522c ba3d 8ea1 a93c
