homework2/logs/2025-03-08_00-18-50_BSQPatchAutoEncoder/version_0/checkpoints/epoch=5-step=9846.ckpt (torch, 882771 bytes, 48 tensors)

model.encoder.patch_embed.weight f4 [128, 3, 5, 5]
-0.021467486 0.027027221 0.033674825 -0.08779204 -0.062295884 0.004741624 -0.024512293 0.021090508
0.0415063 -0.0010596771 0.15403211 0.03670483 -0.006123474 0.12815148 -0.0028828566 0.08521897
0.17812778 0.13099936 0.09384534 -0.014369601 0.20986962 0.13983391 0.18818487 0.16755043
0.13543753 -0.18338895 -0.200614 -0.2489334 -0.18698949 -0.28345168 -0.024120636 -0.09890198
-0.083828196 -0.08719902 -0.26564178 -0.15291245 0.0021969439 -0.018779187 -0.06759084 -0.083240286
-0.07201535 -0.10339578 -0.15454091 -0.012490544 -0.025831789 -0.0708418 -0.061398473 -0.10792781
-0.14324602 -0.1103509 -0.08428492 -0.2145949 -0.16051976 -0.111531205 -0.104013026 -0.124330476
-0.01895608 -0.15442967 -0.13828292 -0.018655363 -0.044499826 -0.047829863 0.0010556757 -0.0071504647
-0.0946436 -0.056275252 0.06772014 0.043600585 -0.034220353 -0.009722673 0.10320912 -0.030748397
-0.05780024 -0.07841242 0.012978335 0.065171115 0.122719 0.086874 0.017049149 0.059023026
0.16254544 0.16989392 0.15162914 -0.03980963 -0.11882244 0.20145017 0.07559404 0.09508131
-0.030413006 -0.06819157 0.12269766 0.14510527 0.097504 0.07903412 -0.07972616 -0.049374364
-0.0046131075 -0.108200505 0.027140118 -0.044612713 -0.0031520035 -0.058080062 -0.008039142 -0.06813559
-0.15746778 0.06900352 -0.015211397 0.019433225 -0.105808474 -0.15688512 0.04598848 -0.0002336422
-0.04975793 -0.09157932 -0.23600918 -0.002905651 -0.047624074 0.0015310954 -0.16662383 -0.12905079
-0.13833717 0.018174868 -0.10518122 -0.06370687 -0.22847728 0.095144145 -0.0051212925 0.07266907
-0.05493456 -0.052950025 0.14269564 0.077112466 -0.004425797 0.04747272 -0.10067112 0.12101409
0.096355475 0.079624295 -0.017990597 -0.09983449 0.05678729 0.04332781 -0.013277529 -0.12513173
-0.070998445 0.025143458 0.010523764 -0.004136165 0.030622344 -0.027437864 -0.033381265 0.013800048
-0.113198414 -0.09318585 -0.051830094 -0.024663052 -0.10735814 -0.09086535 0.0008241622 -0.19282903
0.088267975 -0.020200284 -0.08767983 -0.19342375 -0.026130171 0.12573275 0.06644489 -0.051584523
0.036399186 0.012095977 0.05413793 0.12991531 0.091614366 0.053703196 0.025493724 0.12674195
0.09585363 -0.094189435 -0.067438 -0.15291011 0.06826535 0.05672404 0.026529223 -0.11868098
-0.07709092 0.08069032 0.032204032 -0.04769318 -0.072359 -0.0927711 0.14815591 0.10361581
0.021861559 -0.028680036 -0.11522112 0.0907631 0.1472953 0.0030357188 -0.03551307 -0.07051001
0.09723244 0.011091845 -0.14967398 -0.13386539 -0.06072596 0.119678296 -0.005301573 -0.04269197
-0.05908579 -0.19874017 0.05236273 0.07130811 0.009601127 -0.080733486 -0.08434042 0.084413506
0.014438243 -0.028706089 0.014097763 -0.108427 0.05723941 0.04897281 0.042299017 -0.023374293
-0.06112347 -0.05817576 -0.0688188 -0.045913294 -0.04235827 0.09353684 -0.017713163 0.033048306
-0.007822661 0.05335485 0.063193806 -0.06819975 0.059473913 0.014558077 -0.06973619 -0.027352165
0.07410708 -0.078186385 -0.10163893 -0.083048165 0.03407468 0.060059637 0.060328018 0.079553396
-0.029360566 0.061979108 -0.018861009 -0.049082864 0.06415023 0.06575913 -0.046176895 -0.09410372
00000000: 95dc afbc 3168 dd3c 9dee 093d 50cc b3bd
00000010: f829 7fbd a05f 9b3b 01ce c8bc 00c6 ac3c
00000020: 8302 2a3d dde4 8aba 98ba 1d3e ce57 163d
00000030: 6ca7 c8bb 243a 033e 4fee 3cbb 4987 ae3d
00000040: 2167 363e b224 063e fc31 c03d 7a6e 6bbc
00000050: 10e8 563e 9f30 0f3e 89b3 403e 5792 2b3e
00000060: 23b0 0a3e 50ca 3bbe c26d 4dbe 66e8 7ebe
00000070: 2c7a 3fbe 9420 91be a498 c5bc 1f8d cabd
00000080: 1eae abbd 6695 b2bd 3302 88be 1595 1cbe
00000090: 9afa 0f3b cfd6 99bc 116d 8abd e279 aabd
000000a0: c97c 93bd 2bc1 d3bd f93f 1ebe 23a5 4cbc
000000b0: 309d d3bc 8115 91bd f77c 7bbd 4109 ddbd
000000c0: 16af 12be a7ff e1bd 929d acbd c4be 5bbe
000000d0: 4b5f 24be 796a e4bd c804 d5bd faa0 febd
000000e0: c849 9bbc d022 1ebe 0a9a 0dbe 22d3 98bc
000000f0: 7345 36bd 3fe9 43bd 995e 8a3a 724e eabb
00000100: 81d4 c1bd e180 66bd dbb0 8a3d 8796 323d
00000110: a42a 0cbd d94b 1fbc 4e5f d33d 10e4 fbbc
00000120: f2bf 6cbd b196 a0bd 15a3 543c 6f78 853d
00000130: 1954 fb3d ffea b13d a8aa 8b3c 21c2 713d
00000140: 5072 263e acf8 2d3e ab44 1b3e 6c0f 23bd
00000150: 2e59 f3bd f448 4e3e 0cd1 9a3d fdb9 c23d
00000160: b224 f9bc 06a8 8bbd e948 fb3d 7a96 143e
00000170: 2db0 c73d a4dc a13d 7847 a3bd c63c 4abd
00000180: 8d29 97bb 3a98 ddbd f454 de3c d2bb 36bd
00000190: d891 4ebb 5ce5 6dbd 9bb6 03bc ac8a 8bbd
000001a0: 3c3f 21be b851 8d3d 3939 79bc 6d32 9f3c
000001b0: 1db2 d8bd 7ea6 20be 6b5e 3c3d dafd 74b9
000001c0: f9ce 4bbd f08d bbbd 64ac 71be bc6c 3ebb
000001d0: 7611 43bd 09af c83a 709f 2abe e425 04be
000001e0: 42a8 0dbe 76e3 943c 4069 d7bd bf78 82bd
000001f0: f3f5 69be efda c23d 84d0 a7bb 85d3 943d
00000200: 1003 61bd 20e2 58bd ce1e 123e 24ed 9d3d
00000210: 4706 91bb c172 423d a92c cebd 3cd6 f73d
00000220: 0556 c53d 1012 a33d 0461 93bc 0676 ccbd
00000230: ca99 683d 8078 313d fe89 59bc 8822 00be
00000240: a267 91bd a7f9 cd3c de6b 2c3c ab88 87bb
00000250: b6db fa3c 5fc5 e0bc cbba 08bd 9919 623c
00000260: 92d4 e7bd 39d8 bebd cb4b 54bd 2b0a cabc
00000270: 96de dbbd 9d17 babd 970c 583a f974 45be
00000280: d7c5 b43d 117b a5bc 7c91 b3bd e010 46be
00000290: f10e d6bc 16c0 003e 4214 883d 4b4a 53bd
000002a0: 5017 153d 342e 463c bcbf 5d3d 8508 053e
000002b0: 50a0 bb3d e2f7 5b3d 37d8 d03c a4c8 013e
000002c0: e84e c43d 64e6 c0bd ef1c 8abd 7894 1cbe
000002d0: b4ce 8b3d 7857 683d d053 d93c 030f f3bd
000002e0: d8e1 9dbd f740 a53d 60e8 033d ed59 43bd
000002f0: f530 94bd c6fe bdbd 2fb6 173e 8734 d43d
00000300: 0317 b33c 65f2 eabc 0df9 ebbd 01e2 b93d
00000310: 94d4 163e e9f2 463b 2776 11bd 8d67 90bd
00000320: cd21 c73d 92ba 353c 2344 19be 0214 09be
00000330: c9bb 78bd e519 f53d d1b8 adbb c6dd 2ebd
00000340: f103 72bd 8b82 4bbe 4d7a 563d fd09 923d
00000350: 0c4e 1d3c 9957 a5bd acba acbd fde0 ac3d
00000360: 618e 6c3c 0829 ebbc 4efa 663c fa0e debd
00000370: df73 6a3d b797 483d bc41 2d3d 727b bfbc
00000380: 9b5c 7abd b549 6ebd dff0 8cbd 940f 3cbd
00000390: de7f 2dbd 3e90 bf3d 321b 91bc a95d 073d
000003a0: 9e2a 00bc 9d8a 5a3d c16b 813d 4fac 8bbd
000003b0: eb9a 733d 0085 6e3c d9d1 8ebd a611 e0bc
000003c0: 74c5 973d 2f20 a0bd 1228 d0bd 2815 aabd
000003d0: e491 0b3d 1801 763d 831a 773d e4ec a23d
000003e0: 9285 f0bc cedd 7d3d 6782 9abc 1d0b 49bd
000003f0: 3261 833d b9ac 863d fc23 3dbd 73b9 c0bd

model.encoder.patch_embed.bias f4 [128]
-0.29534835 -0.03571198 -0.0920825 -0.18594183 -0.08602659 0.11863833 -0.15987459 0.022363668
-0.14161287 -0.17262852 -0.7933045 -0.15273543 -0.1502028 -0.08551374 0.044571605 -0.038757555
-0.2113583 -0.06590056 -0.41125414 0.07935166 -0.100007735 -0.08007634 0.26926765 -0.056151763
-0.05957396 -0.12833199 -0.4323111 -0.09392319 -0.026628291 -0.121050745 0.146344 0.18785375
-0.1604937 0.21100587 -0.17411654 -0.02993752 -0.08736622 0.11294949 -0.046118286 -0.16455418
-0.10961943 -0.08682972 -0.6143724 -0.48241228 0.00854644 -0.087958455 -0.196165 0.058486935
0.0354935 -0.10621305 -0.16785291 0.049239986 0.015597066 -0.16997087 -0.2604267 -0.16386695
-0.11423919 -0.78311163 -0.051924285 0.03970851 -0.13052078 -0.10689554 0.052892596 -0.18902473
-0.23302232 0.06563916 -0.16234411 -0.14344107 -0.07793642 -0.08292864 0.03131478 -0.30606818
-0.018448845 -0.18027547 0.1781231 -0.01704029 -0.22738813 -0.13620906 0.046459835 0.038969405
0.22114766 -0.13320939 -0.18918204 -0.30460063 0.026813937 0.08790938 -0.15871063 -0.07833071
-0.1475889 -0.7125126 -0.24965169 -0.4411936 -0.15834233 0.040619817 -0.12578435 -0.10049558
0.0073780003 -0.634209 0.15794861 -0.08046682 -0.14243726 0.06594761 -0.17808296 -0.15359609
-0.06420867 0.037865017 -0.5571343 0.24142748 -0.031478815 0.05977247 -0.16861787 0.107527375
-0.24887642 0.07608912 -0.30851072 0.09885172 -0.25292033 -0.10967436 -0.51193017 0.0087979855
-0.17787729 -0.16718224 -0.5315824 -0.05671183 -0.12740566 -0.40580437 -0.255704 0.05117632
00000000: e637 97be ba46 12bd c095 bcbd 8967 3ebe
00000010: b52e b0bd a7f8 f23d 2ab6 23be 0334 b73c
00000020: f702 11be 88c5 30be 0116 4bbf ad66 1cbe
00000030: c3ce 19be d421 afbd b790 363d 3ec0 1ebd
00000040: 4f6e 58be dff6 86bd e78f d2be 2083 a23d
00000050: dbd0 ccbd 10ff a3bd 73dd 893e 64ff 65bd
00000060: d303 74bd 7669 03be e157 ddbe cd5a c0bd
00000070: 9323 dabc 74e9 f7bd 34db 153e bc5c 403e
00000080: 7658 24be ec11 583e 9b4b 32be 883f f5bc
00000090: 10ed b2bd 1052 e73d 87e6 3cbd e480 28be
000000a0: 2780 e0bd c8d3 b1bd 8247 1dbf befe f6be
000000b0: 5e06 0c3c 9023 b4bd 7adf 48be ff8f 6f3d
000000c0: a261 113d 3a86 d9bd a2e1 2bbe deaf 493d
000000d0: d68a 7f3c d80c 2ebe a656 85be bdcc 27be
000000e0: 3df6 e9bd 017a 48bf 8fae 54bd 64a5 223d
000000f0: 3da7 05be 0dec dabd e8a5 583d b38f 41be
00000100: 679d 6ebe d36d 863d 893d 26be 37e2 12be
00000110: 219d 9fbd 7ed6 a9bd ed43 003d f8b4 9cbe
00000120: 0822 97bc 229a 38be e765 363e 1498 8bbc
00000130: 6fd8 68be 637a 0bbe ab4c 3e3d 629e 1f3d
00000140: 8874 623e 0b68 08be f0b8 41be 9df4 9bbe
00000150: e7a8 db3c d509 b43d 0a85 22be da6b a0bd
00000160: 8b21 17be 3a67 36bf b1a4 7fbe 21e4 e1be
00000170: 7e24 22be f760 263d 9dcd 00be a0d0 cdbd
00000180: 27c3 f13b 855b 22bf 48bd 213e cacb a4bd
00000190: 13db 11be 8a0f 873d 615b 36be 4b48 1dbe
000001a0: d67f 83bd 5918 1b3d 5aa0 0ebf c438 773e
000001b0: eeef 00bd fad3 743d 2aaa 2cbe 5037 dc3d
000001c0: 76d9 7ebe 9dd4 9b3d 1ef5 9dbe c572 ca3d
000001d0: c67e 81be f39c e0bd db0d 03bf 6d25 103c
000001e0: 7725 36be d231 2bbe c915 08bf aa4a 68bd
000001f0: a176 02be 97c5 cfbe a2eb 82be 439e 513d

model.encoder.process.1.weight f4 [128, 128, 1, 1]
-0.1718072 -0.13077457 -0.010009336 -0.009815463 -0.026675679 -0.117022306 -0.008727581 0.10112599
-0.20298247 -0.08393127 -0.32394478 0.01632983 0.07300478 -0.17050554 -0.17811018 0.17509688
-0.08035637 0.05760081 0.15472065 0.06022485 -0.13924606 0.017677404 -0.22862884 -0.11005637
0.031667717 0.12778401 -0.0061601033 -0.07880015 -0.1302526 -0.104752265 -0.00075735245 -0.099133275
-0.1485778 -0.13835439 -0.05378677 -0.18816651 -0.029915275 0.023442002 0.100904584 0.04073413
-0.14764954 0.01986874 0.1475442 -0.09104423 0.12205762 0.11648219 0.10093301 0.07697556
0.036762696 -0.0069839307 0.052433137 -0.051570117 0.0061456794 0.0017913744 -0.15063086 0.037361074
0.03789595 0.049057208 -0.05047761 0.089551404 -0.058546405 -0.0623935 -0.039167058 -0.054375447
-0.14301682 -0.12996608 0.008721505 0.010518878 -0.13460824 -0.033029437 0.07683847 0.047060296
-0.081044026 -0.08667902 -0.11828048 0.047944054 -0.0767149 0.04855477 -0.009238216 -0.057063363
0.06828299 0.038980614 0.11868293 0.11572416 -0.0580407 0.02020195 -0.072542466 -0.012471671
-0.050992493 0.029511943 -0.01845452 -0.25590664 -0.03751033 0.014031323 -0.008247121 0.0610518
0.0058721346 -0.056280434 0.030561922 -0.11428007 -0.0677131 0.0050926358 0.03954263 0.0063261394
-0.10339944 0.008792872 0.21910554 0.0334437 -0.19370283 -0.06683792 0.03433409 0.065902546
-0.0031657922 -0.08818415 -0.08210839 -0.033884175 -0.10370221 0.0812506 0.09352343 0.061863687
-0.057229728 -0.042977486 0.035096586 -0.09428305 0.020618562 -0.13882935 -0.07010362 -0.05253329
0.03257334 -0.037423387 0.041150954 -0.03452258 -0.13642529 -0.10722258 -0.15035976 0.033367943
0.11534185 0.13860245 0.03315518 -0.027446026 -0.046245374 -0.031276006 -0.039880566 0.04309528
0.059602637 0.03853178 -0.08472993 -0.09122239 0.05035917 -0.013825742 0.027082471 -0.06303839
0.025376448 0.010188192 0.037588112 0.006747693 -0.08248801 -0.015550255 -0.013471693 -0.035992924
-0.09965312 -0.010160681 0.06980338 0.11760693 -0.014667491 -0.090105236 -0.05848944 -0.037428837
-0.104518145 -0.11373604 0.03689761 0.029848957 0.09214345 -0.0136682 0.011458915 -0.108194746
-0.108235165 -7.5247546e-05 -0.015605406 0.027978893 0.09731481 0.03919478 0.0378209 -0.001475591
-0.030491646 0.18453477 -0.05852296 -0.043017276 0.04100906 -0.066012025 -0.09389256 -0.05642841
-0.20899533 -0.0062969835 0.016080596 -0.042864572 -0.052478965 0.030521788 -0.10823544 -0.07062931
0.071661666 -0.05255361 0.051711608 -0.103250846 -0.022462405 -0.08906868 0.036356226 0.0935939
-0.17996968 0.008575151 0.0690236 -0.12805982 0.058459748 0.07398091 0.07143952 0.105226055
0.09517346 0.11556996 -0.015749572 0.07511267 0.11608574 -0.100528374 -0.037250306 -0.017344039
0.0002616583 -0.19934604 -0.042381514 0.07244131 0.053763915 -0.048839983 0.05151675 -0.06415721
-0.053077813 -0.0954984 0.056574885 -0.1120368 -0.118777364 0.016399026 0.012071526 -0.026157275
0.013644247 -0.01613626 0.16498472 -0.036385167 -0.22637142 -0.019816574 -0.12656222 0.04159662
0.06063373 -0.01907584 0.018975655 -0.09435144 -0.15836982 -0.068633005 -0.15427315 0.13959241
00000000: 3aee 2fbe c5e9 05be 33fe 23bc 09d1 20bc
00000010: f486 dabc 64a9 efbd 21fe 0ebc 251b cf3d
00000020: a3da 4fbe 28e4 abbd 17dc a5be 23c6 853c
00000030: 8883 953d 0199 2ebe 8462 36be 994c 333e
00000040: e191 a4bd d4ee 6b3d 176f 1e3e 55ae 763d
00000050: 8596 0ebe 34d0 903c ae1d 6abe 3c65 e1bd
00000060: 02b6 013d d0d9 023e b1da c9bb f961 a1bd
00000070: f060 05be 5b88 d6bd 1089 46ba 6306 cbbd
00000080: c724 18be c6ac 0dbe 844f 5cbd b9ae 40be
00000090: e110 f5bc 7109 c03c 10a7 ce3d d5d8 263d
000000a0: 7131 17be c5c3 a23c d415 173e 6675 babd
000000b0: 58f9 f93d 378e ee3d f7b5 ce3d 5da5 9d3d
000000c0: 7b94 163d 75d9 e4bb 21c4 563d 303b 53bd
000000d0: b261 c93b 8dcc ea3a fa3e 1abe ed07 193d
000000e0: c938 1b3d 36f0 483d 9cc1 4ebd ba66 b73d
000000f0: 5bce 6fbd 5490 7fbd a36d 20bd cab8 5ebd
00000100: 0073 12be d415 05be a5e4 0e3c 5f57 2c3c
00000110: bed6 09be e049 07bd 7d5d 9d3d 4cc2 403d
00000120: 69fa a5bd c584 b1bd 093d f2bd fc60 443d
00000130: b41c 9dbd 5ee1 463d e35b 17bc 46bb 69bd
00000140: f4d7 8b3d 23aa 1f3d 0910 f33d ca00 ed3d
00000150: 16bc 6dbd 8f7e a53c 2591 94bd fb55 4cbc
00000160: 81dd 50bd 08c3 f13c ef2d 97bc 3206 83be
00000170: 6fa4 19bd a2e3 653c ef1e 07bc 7411 7a3d
00000180: 096b c03b 5086 66bd ff5c fa3c ab0b eabd
00000190: 2aad 8abd 20e0 a63b 74f7 213d 814b cf3b
000001a0: 16c3 d3bd fa0f 103c 345d 603e 43fc 083d
000001b0: 095a 46be 52e2 88bd e7a1 0c3d eaf7 863d
000001c0: 2e79 4fbb e499 b4bd 7228 a8bd 22ca 0abd
000001d0: d361 d4bd b766 a63d 3689 bf3d c764 7d3d
000001e0: b869 6abd 2909 30bd 70c1 0f3d 7917 c1bd
000001f0: 42e8 a83c 4829 0ebe 7d92 8fbd 262d 57bd
00000200: 9f6b 053d 4449 19bd e78d 283d 8d67 0dbd
00000210: 12b3 0bbe 8397 dbbd e9f7 19be d3ac 083d
00000220: 5938 ec3d cded 0d3e bacd 073d 7dd6 e0bc
00000230: ca6b 3dbd 451b 00bd ce59 23bd ad84 303d
00000240: e521 743d 80d3 1d3d e386 adbd ced2 babd
00000250: 6b45 4e3d 5d85 62bc 0fdc dd3c 451a 81bd
00000260: 45e2 cf3c 60ec 263c fef5 193d c01b dd3b
00000270: 79ef a8bd 7fc6 7ebc 60b8 5cbc 516d 13bd
00000280: ef16 ccbd fc78 26bc 13f5 8e3d e7db f03d
00000290: eb4f 70bc 1889 b8bd 9f92 6fbd fb4e 19bd
000002a0: 9c0d d6bd 71ee e8bd f321 173d cd85 f43c
000002b0: b5b5 bc3d 96f0 5fbc 2cbe 3b3c 3595 ddbd
000002c0: 66aa ddbd 38ce 9db8 d1ad 7fbc fe33 e53c
000002d0: fd4c c73d b58a 203d 17ea 1a3d 9e68 c1ba
000002e0: 9ec9 f9bc aff6 3c3e c5b5 6fbd e232 30bd
000002f0: 1ef9 273d 5031 87bd be4a c0bd 7a21 67bd
00000300: df02 56be ed56 cebb 74bb 833c c392 2fbd
00000310: 2ff4 56bd d408 fa3c 8baa ddbd 1aa6 90bd
00000320: 5ac3 923d 7442 57bd 8dcf 533d 2e75 d3bd
00000330: 1403 b8bc a469 b6bd 44ea 143d 29ae bf3d
00000340: f949 38be ca7e 0c3c 3f5c 8d3d 1d22 03be
00000350: 7d73 6f3d 4e83 973d e24e 923d c280 d73d
00000360: 4eea c23d f1af ec3d 3f05 81bc acd4 993d
00000370: 5cbe ed3d d2e1 cdbd c793 18bd 1615 8ebc
00000380: 2f2f 8939 5e21 4cbe 3d98 2dbd 1c5c 943d
00000390: 8d37 5c3d 6f0c 48bd 3a03 533d db64 83bd
000003a0: 1f68 59bd aa94 c3bd 11bb 673d 8d73 e5bd
000003b0: 8c41 f3bd 4057 863c a6c7 453c c847 d6bc
000003c0: 1f8c 5f3c 3130 84bc c1f1 283e 9d08 15bd
000003d0: e9cd 67be 5e56 a2bc 8799 01be 3861 2a3d
000003e0: 135b 783d f044 9cbc d572 9b3c 543b c1bd
000003f0: b32b 22be 768f 8cbd c8f9 1dbe 50f1 0e3e

model.encoder.process.1.bias f4 [128]
-0.028954668 0.13531819 -0.10199121 0.013747048 0.045195036 -0.07055197 0.04495625 0.08764859
0.0030731892 -0.08258925 0.05199988 0.019902395 -0.06693124 0.0145383105 0.03843235 0.042746145
0.06668752 -0.02029877 0.0072561204 -0.082861714 -0.0047279885 0.014083231 0.107642114 0.03805286
0.023486545 -0.14139843 -0.04853126 -6.301918e-05 0.040875513 -0.014298072 0.043024454 -0.030104512
-0.055597693 0.0070475973 0.06423977 -0.047800336 -0.04161055 -0.0060173105 0.039752264 0.03974567
-0.004651091 0.027926788 -0.04240375 -0.07061315 -0.110542774 0.04551329 -0.080102645 -0.10739602
0.012783545 0.03404571 -0.07301759 0.056530897 0.05366444 -0.013513467 -0.08187325 -0.12614271
0.061124064 0.0019209821 0.007064145 0.0026696182 -0.0052595036 -0.06547331 0.03695575 -0.10972473
0.1420603 0.009997867 0.05184364 -0.03440742 0.077298634 -0.058364734 -0.053387586 0.045498002
0.05947013 0.00064432423 -0.06605237 0.03453255 0.03566737 0.06366872 0.023365937 0.026451366
0.034323685 0.12974122 -0.112120844 0.058313537 0.07387951 0.08799831 0.014498695 -0.014963816
-0.15934359 -0.012798091 -0.11166109 0.104045 0.009898347 0.097717874 -0.056638848 0.044323724
0.067569904 -0.09257474 0.0046496266 -0.04448325 0.009475658 -0.062744334 0.08245272 -0.013603277
0.0036782972 0.077984184 -0.053453673 -0.05671999 -0.068683535 -0.083313584 0.07079889 0.09256969
0.09304532 -0.094667055 0.075542845 0.0017130836 -0.007118599 -0.0995586 -0.043837756 -0.035575196
-0.074901976 -0.020315506 -0.047006946 0.12852784 0.12903228 0.117761634 0.07220697 -0.023167634
00000000: 5732 edbc da90 0a3e c4e0 d0bd 4c3b 613c
00000010: 6e1e 393d 8d7d 90bd 0b24 383d 1b81 b33d
00000020: 8f67 493b 8d24 a9bd d3fd 543d 590a a33c
00000030: 3f13 89bd 1832 6e3c 3d6b 1d3d 9516 2f3d
00000040: 7793 883d 9b49 a6bc c0c4 ed3b 67b3 a9bd
00000050: 3eed 9abb 5abd 663c 7873 dc3d 51dd 1b3d
00000060: db66 c03c c0ca 10be b7c8 46bd 2a29 84b8
00000070: 156d 273d 7642 6abc 693a 303d bd9d f6bc
00000080: 68ba 63bd 88ef e63b 2490 833d 49ca 43bd
00000090: d36f 2abd dc2c c5bb 45d3 223d 5bcc 223d
000000a0: 2e68 98bb b8c6 e43c 8eaf 2dbd a19d 90bd
000000b0: 4064 e2bd 256c 3a3d db0c a4bd 72f2 dbbd
000000c0: 1372 513c 8473 0b3d 3f8a 95bd f18c 673d
000000d0: 3ecf 5b3d 9767 5dbc 2aad a7bd 8e2b 01be
000000e0: 3a5d 7a3d 77c9 fb3a 587a e73b c3f4 2e3b
000000f0: ea57 acbb df16 86bd ea5e 173d 5cb7 e0bd
00000100: 4178 113e 18ce 233c ff59 543d cbee 0cbd
00000110: bf4e 9e3d dc0f 6fbd f1ac 5abd 1d5c 3a3d
00000120: f396 733d dee7 283a 7746 87bd 0172 0d3d
00000130: f317 123d bf64 823d ec69 bf3c 89b0 d83c
00000140: fe96 0c3d e2da 043e 9d9f e5bd 2dda 6e3d
00000150: 244e 973d 7538 b43d ef8b 6d3c cb2a 75bc
00000160: f72a 23be 16af 51bc 92ae e4bd 8c15 d53d
00000170: ad2c 223c 4f20 c83d 23fe 67bd cb8c 353d
00000180: 1762 8a3d d397 bdbd e55b 983b 1134 36bd
00000190: ca3f 1b3c 1a80 80bd f9dc a83d 47e0 5ebc
000001a0: 960f 713b 2cb6 9f3d 3df2 5abd 3853 68bd
000001b0: f4a9 8cbd 50a0 aabd 02ff 903d 2d95 bd3d
000001c0: 8b8e be3d cde0 c1bd 35b6 9a3d 8c89 e03a
000001d0: 2343 e9bb 61e5 cbbd 388f 33bd 4cb7 11bd
000001e0: 3566 99bd b46c a6bc 5b8a 40bd cd9c 033e
000001f0: 0a21 043e 032d f13d 3fe1 933d 0dca bdbc

model.decoder.process.0.weight f4 [128, 128, 1, 1]
-0.007871536 0.002553774 -0.07293015 -0.054595064 0.12872095 0.081125624 -0.05837564 0.07968885
0.03465875 0.089669324 -0.03869391 0.0020481765 -0.003882667 -0.08154766 -0.09322981 -0.05996883
-0.08755567 0.017932517 -0.0005380168 -0.05559793 0.1471134 0.081474476 0.056216124 0.03958619
-0.17942905 -0.09863457 0.08557916 0.023007931 -0.006520718 0.10210422 -0.13264924 -0.03695355
0.009150407 0.017240593 0.11067727 -0.005977571 0.08912612 0.04115618 0.00048513277 0.06778253
-0.06733172 0.05282564 -0.049645107 0.09388175 -0.05958567 -0.07492697 0.010796602 0.093226716
0.07676988 0.012603785 -0.0128554925 0.08779711 -0.11974521 0.05626622 0.13900957 -0.060257368
0.03654438 -0.026683308 0.0017397491 -0.0043808916 0.020436468 0.022745436 -0.097402036 -0.024019536
-0.03230594 -0.053969964 0.039787687 0.034353685 0.03599868 -0.02725722 0.008872573 -0.049218964
-0.082359776 0.041657384 -0.060302977 0.11614442 0.008682175 -0.14439164 -0.034480125 -0.037135288
-0.0035188184 0.05645217 0.10808339 -0.013430474 0.08790025 0.011791998 0.11349676 -0.057786927
-0.041208223 0.07077177 -0.097149484 0.06253013 -0.029551517 -0.10086629 -0.0730238 0.015074319
0.007931153 -0.0051837247 -0.01486542 0.025094856 -0.010810351 -0.014335329 -0.04645719 -0.14176507
0.033643506 0.10486565 -0.001661472 -0.12107497 -0.030368244 0.08272344 0.02616364 -0.0055549615
0.07863474 0.13659722 -0.061394516 0.050379883 -0.00915947 -0.012105255 -0.06460522 -0.08048717
0.032283142 -0.08190974 -0.023794975 -0.11292128 -0.034053713 0.0073017254 0.013552727 0.056100048
-0.14735056 -0.08833142 -0.019967772 0.011788117 0.19296794 0.030819243 -0.0232555 0.12497886
0.13675867 -0.19048429 -0.14237696 0.05752133 0.15726294 0.056810506 0.16714628 -0.04975693
0.011489712 -0.11823472 0.06956218 -0.0137893325 0.09417305 -0.052739784 0.03584123 0.10944955
-0.02987063 -0.119936444 0.27349424 -0.028428806 0.017723003 0.0120268725 -0.07385454 0.08434839
0.07795 0.13221675 -0.05640342 0.110936314 0.14026792 0.0037825773 0.15382053 -0.012765686
-0.12077314 -0.12790336 -0.25899145 -0.0095866155 0.18764114 0.048657104 -0.028085703 -0.11185693
-0.009433437 0.026871016 -0.030539403 0.10157052 0.05552415 0.044316065 0.09508049 0.10903497
0.1357051 0.01835637 0.029976463 -0.043627393 -0.085693225 0.0851547 -0.046731576 -0.035279505
-0.09601396 -0.13109227 0.04199932 0.06398827 0.104234226 -0.0012050087 0.112446226 0.09883663
-0.2899232 -0.16104394 -0.017515313 0.2223085 -0.05541864 0.1377713 -0.14756691 0.09378489
0.033565912 0.04309357 0.059250295 0.102804475 0.059225194 0.16791923 -0.0068186796 0.019832075
0.045685284 -0.044729516 0.10620654 0.00575 -0.052273385 -0.13949187 0.057897013 0.016019223
0.18209666 0.071484834 0.008774126 -0.058712408 -0.066861555 0.041983183 0.05452025 0.11346078
0.048446413 -0.10387763 0.19417652 -0.18418708 0.015912749 -0.07833677 0.14387654 0.09949426
0.083172254 -0.08547835 0.03581732 -0.038625356 0.07146106 -0.067483425 0.014372341 0.14202622
-0.081560485 0.05653193 -1.4861871e-05 0.008634083 0.11919014 0.08439219 0.11583992 0.17343217
00000000: 9df7 00bc 385d 273b 675c 95bd 139f 5fbd
00000010: 6dcf 033e 3125 a63d 4c1b 6fbd e833 a33d
00000020: 55f6 0d3d 8da4 b73d 817d 1ebd b33a 063b
00000030: 5874 7ebb 7602 a7bd 45ef bebd e0a1 75bd
00000040: 6350 b3bd 37e7 923c b209 0dba a8ba 63bd
00000050: e5a4 163e 17dc a63d e142 663d 2125 223d
00000060: 40bc 37be ec00 cabd 2044 af3d 217b bc3c
00000070: bfab d5bb 041c d13d 34d5 07be 9b5c 17bd
00000080: 97eb 153c 253c 8d3c c4aa e23d 80df c3bb
00000090: c187 b63d 6293 283d 6b59 fe39 91d1 8a3d
000000a0: 36e5 89bd b35f 583d ab58 4bbd 1345 c03d
000000b0: 1a10 74bd 5073 99bd 3be4 303c a6ed be3d
000000c0: 8739 9d3d 1b80 4e3c d89f 52bc f9ce b33d
000000d0: fa3c f5bd 6877 663d 8658 0e3e 6ed0 76bd
000000e0: 8faf 153d f496 dabc 4b08 e43a 958d 8fbb
000000f0: 616a a73c a354 ba3c b87a c7bd 9ec4 c4bc
00000100: 3c53 04bd 9c0f 5dbd 6af8 223d 73b6 0c3d
00000110: 5a73 133d 894a dfbc 455e 113c d399 49bd
00000120: 3eac a8bd efa0 2a3d 4100 77bd 20dd ed3d
00000130: ae3f 0e3c 67db 13be 083b 0dbd 2c1b 18bd
00000140: fa9b 66bb 643a 673d d35a dd3d 7e0b 5cbc
00000150: 0c05 b43d 3933 413c fd70 e83d fcb1 6cbd
00000160: f4c9 28bd caf0 903d 4ff6 c6bd cc0f 803d
00000170: 0616 f2bc fc92 cebd 818d 95bd 47fa 763c
00000180: abf1 013c 3cdc a9bb 178e 73bc ba93 cd3c
00000190: e61d 31bc bade 6abc e549 3ebd dd2a 11be
000001a0: c6cd 093d cdc3 d63d c0c5 d9ba 27f6 f7bd
000001b0: d3c6 f8bc e86a a93d 2155 d63c 6506 b6bb
000001c0: 400b a13d 24e0 0b3e d178 7bbd 235b 4e3d
000001d0: 9a11 16bc 1f55 46bc be4f 84bd 75d6 a4bd
000001e0: 543b 043d 4bc0 a7bd aeed c2bc 4643 e7bd
000001f0: e87b 0bbd 5043 ef3b 420c 5e3c 2ac9 653d
00000200: 11e3 16be 1be7 b4bd 7493 a3bc f222 413c
00000210: 6399 453e a378 fc3c 5182 bebc ebf4 ff3d
00000220: 770a 0c3e 500e 43be 44cb 11be 7c9b 6b3d
00000230: 8909 213e 22b2 683d 6528 2b3e eccd 4bbd
00000240: 583f 3c3c 0b25 f2bd 9e76 8e3d a7ec 61bc
00000250: cddd c03d ac05 58bd 41ce 123d 1627 e03d
00000260: 40b3 f4bc 3da1 f5bd 7007 8c3e 87e3 e8bc
00000270: d52f 913c 5c0c 453c 0d41 97bd d9be ac3d
00000280: 40a4 9f3d d463 073e 4607 67bd 9432 e33d
00000290: 65a2 0f3e 1ee5 773b 2183 1d3e 2b27 51bc
000002a0: e857 f7bd 19f9 02be 879a 84be 2e11 1dbc
000002b0: 0025 403e ac4c 473d fd13 e6bc 3f15 e5bd
000002c0: b48e 1abc 9b20 dc3c c52d fabc 3404 d03d
000002d0: 4b6d 633d c384 353d 8fb9 c23d ba4d df3d
000002e0: 47f6 0a3e 1960 963c 3391 f53c a3b2 32bd
000002f0: ee7f afbd 9665 ae3d 9c69 3fbd 3e81 10bd
00000300: f8a2 c4bd 0d3d 06be 7b07 2c3d 480c 833d
00000310: c178 d53d 62f1 9dba 354a e63d dc6a ca3d
00000320: d070 94be b4e8 24be 467c 8fbc d7a4 633e
00000330: a8fe 62bd eb13 0d3e c81b 17be 4b12 c03d
00000340: 697c 093d e282 303d 70b0 723d 278b d23d
00000350: 1e96 723d 05f3 2b3e 3b6f dfbb e076 a23c
00000360: 7e20 3b3d 4c36 37bd d082 d93d 7f6a bc3b
00000370: 9e1c 56bd f5d6 0ebe 6b25 6d3d bf3a 833c
00000380: 8c77 3a3e a466 923d 5ac1 0f3c 6c7c 70bd
00000390: b6ee 88bd 8ff6 2b3d a050 5f3d 205e e83d
000003a0: bf6f 463d cbbd d4bd 36d6 463e 8a9b 3cbe
000003b0: 745b 823c 076f a0bd 5f54 133e a6c3 cb3d
000003c0: 3756 aa3d 460f afbd 2fb5 123d 9f35 1ebd
000003d0: 2d5a 923d c034 8abd f879 6b3c 526f 113e
000003e0: 2f09 a7bd 068e 673d 4057 79b7 f875 0d3c
000003f0: f619 f43d d0d5 ac3d 7b3d ed3d 3498 313e

model.decoder.process.0.bias f4 [128]
-0.120767646 -0.12073569 -0.13796933 -0.12394002 -0.14297722 -0.06445441 -0.053316645 -0.13109963
0.01266275 0.016788453 -0.00724062 -0.025554204 -0.013928916 -0.035542354 -0.049151283 -0.05251081
-0.013428008 -0.096611515 -0.04908129 0.0054706773 -0.052253585 0.043186627 -0.1255529 -0.06957973
0.065560184 -0.06912614 -0.08424587 -0.06565075 -0.03160593 -0.080822416 -0.11771866 -0.0655971
-0.10636201 -0.048396647 -0.079625376 -0.08615729 -0.04195037 0.0029718103 -0.10257862 -0.023786768
-0.085188 -0.098867476 -0.13843998 -0.019457193 0.030017775 -0.061733328 -0.03143295 -0.027072094
-0.08429204 -0.0019058562 0.021286199 -0.051406037 -0.13166614 -0.13097353 0.006898711 0.02956664
-0.13848135 -0.0477385 -0.0712905 -0.08545377 -0.116653845 -0.14044909 -0.0698822 -0.062184807
-0.14447586 -0.09866098 -0.021708325 0.036036666 -0.11280523 -0.07648469 -0.116523504 -0.055765927
-0.050730437 0.055732206 -0.10088955 0.019769963 -0.1163513 0.01718709 0.01880333 0.012916901
-0.04901731 -0.09024926 -0.11971698 -0.04205784 -0.10448526 0.053563494 -0.10250258 -0.05133543
0.012793273 -0.101113416 -0.02359731 -0.08977329 -0.013088343 -0.14388955 -0.08585221 0.023902226
-0.038395066 -0.008096465 -0.016139293 -0.026657907 -0.073247656 0.04071959 -0.0647863 -0.097656414
-0.005601859 -0.10285632 0.086099856 0.03411088 -0.102779046 -0.068148844 -0.07780181 -0.116294794
0.04584496 -0.02893997 -0.048058804 -0.14563714 -0.09222383 -0.09139606 -0.079660684 -0.052757572
-0.14865135 -0.049305998 -0.09006622 0.028253 -0.13977356 -0.13621335 -0.032387145 -0.034721993
00000000: 0755 f7bd 4644 f7bd d547 0dbe 44d4 fdbd
00000010: 9f68 12be ac00 84bd 8e62 5abd fb3e 06be
00000020: 6c77 4f3c f087 893c b942 edbb 0d57 d1bc
00000030: 1c36 64bc dc94 11bd db52 49bd 9315 57bd
00000040: 2601 5cbc 42dc c5bd 7609 49bd 5e43 b33b
00000050: db07 56bd 76e4 303d f090 00be d17f 8ebd
00000060: 6b44 863d 0192 8dbd 1989 acbd e773 86bd
00000070: 3875 01bd 3986 a5bd 7b16 f1bd c657 86bd
00000080: 53d4 d9bd 903b 46bd a112 a3bd 3c73 b0bd
00000090: 27d4 2bbd b4c2 423b bd14 d2bd 78dc c2bc
000000a0: 0c77 aebd 087b cabd 36c3 0dbe b164 9fbc
000000b0: d6e7 f53c 16dc 7cbd d6bf 00bd 4cc6 ddbc
000000c0: 4ea1 acbd eccd f9ba 6560 ae3c 238f 52bd
000000d0: 7dd3 06be ed1d 06be 950e e23b bd35 f23c
000000e0: 0ece 0dbe 7289 43bd c100 92bd 6302 afbd
000000f0: 36e8 eebd e3d1 0fbe 661e 8fbd 7fb5 7ebd
00000100: 7bf1 13be c50e cabd a8d5 b1bc 2f9b 133d
00000110: 6e06 e7bd 01a4 9cbd e0a3 eebd d06a 64bd
00000120: b8ca 4fbd 7447 643d 2e9f cebd 9ef4 a13c
00000130: 9749 eebd f1cb 8c3c 7109 9a3c 69a1 533c
00000140: 60c6 48bd 9bd4 b8bd 2d2e f5bd d744 2cbd
00000150: 5efc d5bd 6565 5b3d dfec d1bd 1a45 52bd
00000160: e09a 513c 8d14 cfbd 254f c1bc 0fdb b7bd
00000170: 7d70 56bc c857 13be 49d3 afbd 9ace c33c
00000180: 2544 1dbd 09a7 04bc 8d36 84bc af61 dabc
00000190: de02 96bd 96c9 263d aeae 84bd 1600 c8bd
000001a0: cd8f b7bb 56a6 d2bd 1f55 b03d dab7 0b3d
000001b0: d27d d2bd 9f91 8bbd 8e56 9fbd f72b eebd
000001c0: edc7 3b3d 8413 edbc 4fd9 44bd e721 15be
000001d0: d9df bcbd dc2d bbbd 2425 a3bd 5318 58bd
000001e0: 0f38 18be 16f5 49bd a374 b8bd d672 e73c
000001f0: cd20 0fbe 837b 0bbe 62a8 04bd a638 0ebd

model.decoder.unpatch.weight f4 [128, 3, 5, 5]
-0.00904356 -0.009942191 -0.01763558 -0.018627767 -0.016189052 -0.019019237 -0.027644832 -0.03787573
-0.03934495 -0.0344692 -0.036707535 -0.053707674 -0.0660282 -0.0636719 -0.06557578 -0.037841566
-0.051618826 -0.058940265 -0.06920916 -0.07036204 -0.029807078 -0.030044518 -0.042707086 -0.05793211
-0.050226595 0.040647514 0.029089667 0.032373678 0.0218247 0.023075782 0.033890426 0.015823208
0.007911791 0.005010608 0.001155353 0.005074815 -0.0011710948 -0.018998105 -0.025919426 -0.021712169
0.0038430626 -0.014008528 -0.027230073 -0.03631174 -0.03746448 0.005567296 0.0029960186 -0.011307629
-0.02541758 -0.023922976 0.08354148 0.07918098 0.067115165 0.06494566 0.06914616 0.071205035
0.060338415 0.054380964 0.0475603 0.034721762 0.051639803 0.040261004 0.024310729 0.009709835
0.004342163 0.03929977 0.029258072 0.009760122 -0.0035107695 -0.010632692 0.034677457 0.029489271
0.017738884 0.005780047 -0.003962158 -0.018206669 0.0005964506 0.015874855 0.031082846 0.026262304
-0.039424766 -0.024558783 -0.0043737777 0.0136212325 0.021328079 -0.05159971 -0.043807507 -0.03523959
-0.012534083 0.0036582532 -0.04559941 -0.03895055 -0.03618824 -0.025838805 -0.014380009 -0.035120796
-0.036902625 -0.04102677 -0.030611439 -0.0144457 -0.016483 0.00057298393 0.017902493 0.023433367
0.025122115 -0.039593842 -0.023696616 -0.006114555 0.0075656334 0.022171253 -0.04745511 -0.04372302
-0.034116935 -0.021157423 -0.00443121 -0.044336617 -0.041523468 -0.04026005 -0.030224489 -0.016820626
-0.03663949 -0.037404817 -0.04154085 -0.033991907 -0.024339844 -0.027449444 -0.009399248 0.00484118
0.012056511 0.015386491 -0.04678798 -0.03473255 -0.021095917 -0.0021349536 0.0032454883 -0.06258614
-0.055011526 -0.050063428 -0.034587454 -0.01767384 -0.06022665 -0.057066347 -0.0592929 -0.047811273
-0.038242016 -0.052877683 -0.058991715 -0.061688025 -0.055762194 -0.040222686 -0.05911864 -0.07134529
-0.059585754 -0.054919817 -0.038394187 -0.07723592 -0.09002581 -0.09850006 -0.07708325 -0.057657205
-0.087660424 -0.09920122 -0.09420461 -0.08528357 -0.07111322 -0.080484286 -0.09362388 -0.09325669
-0.081310704 -0.064183556 -0.057583086 -0.051224813 -0.06609032 -0.04902517 -0.053254083 0.014217506
0.029093843 0.0083538415 0.044588625 0.047048308 -0.017331928 -0.01824863 -0.02057028 0.002893307
0.028670833 -0.020941148 -0.041146725 -0.034896452 -0.040652294 -0.0029510183 -0.03158127 -0.036282565
-0.040555175 -0.03349145 -0.015525246 -0.022121517 -0.03586659 -0.025219424 -0.016493162 -0.021199204
0.07303705 0.07007587 0.0627395 0.072763376 0.087318905 0.03856605 0.02960548 0.034239884
0.044479676 0.06153362 0.034743093 0.010675828 0.011140474 0.011855427 0.035915904 0.015262526
0.011725552 -0.008828371 0.009571071 0.031896025 0.033906937 0.025048317 0.025380751 0.019547878
0.021900792 0.07741012 0.0328711 0.053549394 0.025097305 0.09561511 -0.032833114 0.014822563
0.0703826 0.032917924 0.104105406 -0.009510392 -0.0036176483 0.04874013 0.050985232 0.071816586
-0.0064806896 -0.028040914 -0.0017893829 0.011818254 0.036528673 0.014046028 0.058487646 0.0791512
0.026140174 0.031007318 -0.009512265 -0.03636128 -0.018948996 0.014779997 0.01056079 -0.045328543
00000000: 712b 14bc 92e4 22bc 7e78 90bc 4299 98bc
00000010: e79e 84bc 3bce 9bbc 6a77 e2bc 9523 1bbd
00000020: 2c28 21bd 932f 0dbd a45a 16bd 94fc 5bbd
00000030: cb39 87bd 6a66 82bd 984c 86bd c2ff 1abd
00000040: 436e 53bd 596b 71bd 88bd 8dbd f919 90bd
00000050: f92d f4bc ec1f f6bc a0ed 2ebd 384a 6dbd
00000060: 67ba 4dbd 027e 263d 744d ee3c 439a 043d
00000070: b7c9 b23c 6c09 bd3c b0d0 0a3d ac9f 813c
00000080: 75a0 013c 0730 a43b 376f 973a a24a a63b
00000090: 6c7f 99ba eaa1 9bbc fa54 d4bc b8dd b1bc
000000a0: e4db 7b3b 0684 65bc 9a11 dfbc 9ebb 14bd
000000b0: 5b74 19bd dd6d b63b da58 443b a243 39bc
000000c0: 8738 d0bc 1efa c3bc cc17 ab3d a329 a23d
000000d0: ad73 893d 3b02 853d 809c 8d3d f2d3 913d
000000e0: 6a25 773d 93be 5e3d 97ce 423d 6838 0e3d
000000f0: 4284 533d b9e8 243d 4b27 c73c 0016 1f3c
00000100: b448 8e3b ccf8 203d a0ae ef3c ebe8 1f3c
00000110: f014 66bb be34 2ebc f309 0e3d 7c93 f13c
00000120: 2351 913c 8c66 bd3b fed4 81bb 2726 95bc
00000130: 1f5b 1c3a fc0b 823c 74a1 fe3c 0b24 d73c
00000140: dd7b 21bd 802f c9bc e851 8fbb 972b 5f3c
00000150: 39b8 ae3c 385a 53bd 806f 33bd 6357 10bd
00000160: c15b 4dbc 4ebf 6f3b 72c6 3abd 9d8a 1fbd
00000170: 1f3a 14bd e7ab d3bc 219a 6bbc d3da 0fbd
00000180: 3527 17bd b00b 28bd d7c4 fabc a8ad 6cbc
00000190: 5b07 87bc 4d34 163a 40a8 923c 55f7 bf3c
000001a0: e5cc cd3c 272d 22bd 681f c2bc 9b5c c8bb
000001b0: 22e9 f73b 7da0 b53c 4a60 42bd e916 33bd
000001c0: 33be 0bbd 5552 adbc af33 91bb 509a 35bd
000001d0: 8314 2abd b9e7 24bd 5999 f7bc 69cb 89bc
000001e0: 4a13 16bd cb35 19bd bd26 2abd 193b 0bbd
000001f0: 5a64 c7bc a8dd e0bc 4eff 19bc c3a2 9e3b
00000200: ac88 453c 9f17 7c3c c1a4 3fbd b843 0ebd
00000210: 58d1 acbc 94ea 0bbb 42b2 543b 2a2d 80bd
00000220: c453 61bd 4f0f 4dbd 93ab 0dbd bbc8 90bc
00000230: 38b0 76bd 67be 69bd 1ddd 72bd c1d5 43bd
00000240: a9a3 1cbd 4596 58bd 4ca1 71bd 95ac 7cbd
00000250: e666 64bd 8bc0 24bd 6326 72bd 7b1d 92bd
00000260: 3110 74bd 9af3 60bd 3943 1dbd de2d 9ebd
00000270: 745f b8bd 66ba c9bd d3dd 9dbd f629 6cbd
00000280: 4f87 b3bd 022a cbbd 59ee c0bd 27a9 aebd
00000290: cfa3 91bd f2d4 a4bd e0bd bfbd 5dfd bebd
000002a0: 3a86 a6bd ab72 83bd 3edc 6bbd 1cd1 51bd
000002b0: 5d5a 87bd 9ece 48bd f420 5abd 8bf0 683c
000002c0: 3656 ee3c 8dde 083c 90a2 363d bab5 403d
000002d0: b0fb 8dbc 277e 95bc 0183 a8bc a39d 3d3b
000002e0: 18df ea3c c58c abbc 7889 28bd 95ef 0ebd
000002f0: 0583 26bd df65 41bb 5d5b 01bd 079d 14bd
00000300: 2f1d 26bd 552e 09bd 9a5d 7ebc 2f38 b5bc
00000310: d8e8 12bd f798 cebc ab1c 87bc f4a9 adbc
00000320: 7394 953d f083 8f3d 917d 803d f704 953d
00000330: 41d4 b23d 6ff7 1d3d 3187 f23c 1f3f 0c3d
00000340: 5230 363d ad0a 7c3d c64e 0e3d abe9 2e3c
00000350: 8986 363c 443d 423c 8e1c 133d ad0f 7a3c
00000360: 881c 403c dfa4 10bc fbcf 1c3c 68a5 023d
00000370: 00e2 0a3d 2132 cd3c 4beb cf3c df22 a03c
00000380: 4a69 b33c 3289 9e3d d9a3 063d 9c56 5b3d
00000390: dd98 cd3c dbd1 c33d 047c 06bd 56da 723c
000003a0: c124 903d f2d4 063d 3735 d53d 7ad1 1bbc
000003b0: 1116 6dbb bba3 473d e4d5 503d 9314 933d
000003c0: f75b d4bb 0fb6 e5bc ba89 eaba 5aa1 413c
000003d0: 179f 153d 5021 663c be90 6f3d 061a a23d
000003e0: eb23 d63c 0f03 fe3c 55d9 1bbc 91ef 14bd
000003f0: ed3a 9bbc cd27 723c 2a07 2d3c 6caa 39bd

model.decoder.unpatch.bias f4 [3]
-0.002128836 0.03880419 0.0031692516
00000000: f183 0bbb 24f1 1e3d 38b3 4f3b

model.bsq.down_proj.weight f4 [10, 128]
0.07913324 -0.06519608 0.02378612 0.008790525 -0.02106362 -0.091195196 -0.0373856 -0.11912245
0.002495974 0.0021105458 0.08081578 -0.027482798 -0.24277695 0.046509426 -0.022476446 0.029434178
0.008387505 -0.15546541 0.101848334 0.14525831 -0.00054268405 -0.025794905 -0.015166017 0.032668233
-0.066445425 -0.0035849712 -0.033877138 0.0915084 0.07403842 -0.095712215 0.12564553 0.12858993
0.06315241 -0.0074035907 -0.0017791719 0.1586068 0.14969999 0.020428663 -0.021357987 -0.041513402
0.033575878 0.04900209 0.04136189 -0.042464294 0.07285325 -0.038042575 -0.08312961 0.069050536
-0.02543129 -0.050803967 0.09311621 0.056594275 0.016867695 0.08415338 0.11315822 0.09436227
-0.039434683 -0.020940552 0.11313876 -0.002366997 0.059055455 0.07386684 -0.1328344 -0.09036596
0.06426384 -0.026292581 -0.197324 0.14741497 -0.15205945 0.050129477 0.018574832 0.014067507
-0.011030944 -0.011465669 0.08312247 -0.13445468 -0.004324027 -0.1146315 -0.18655208 -0.051015984
0.02565301 -0.034771714 -0.06773178 0.10036133 -0.073719494 -0.009995939 -0.063728236 0.1636703
0.0011647986 0.13177466 0.09342334 0.1516116 -0.03173631 -0.18965362 -0.1689204 0.19889733
0.0848151 0.1124363 0.121597834 0.11454821 -0.026792353 -0.052654516 -0.092325926 0.07557447
-0.12556407 -0.085139886 0.012384684 -0.14813675 -0.14975674 -0.15286851 -0.0015954938 -0.075576045
-0.062324498 -0.07193115 -0.014962476 0.06832183 0.063774176 -0.1933268 -0.010049848 -0.09367767
0.117060825 -0.0063669113 0.061378755 0.06290371 -0.07496157 0.091704 -0.06958445 0.048083466
-0.05493004 0.030117046 0.14206119 -0.029619701 -0.106075406 0.05474486 -0.016636714 0.055819027
-0.017749738 -0.035615683 0.0027818591 -0.1926794 -0.06312038 -0.14611846 0.004408658 -0.050778117
-0.04618911 0.015756052 0.1259403 0.05477879 -0.12612556 0.045479614 -0.04014493 -0.016365303
-0.11235588 -0.030731179 -0.04777031 0.0579718 -0.014686619 -0.057172306 -0.25988623 0.081132114
-0.0680556 -0.13520414 0.067952976 0.120254606 0.13278307 -0.07657425 0.009303857 -0.037685025
0.08170022 -0.038387172 0.09883394 0.15154482 -0.060758114 -0.113910995 0.10403625 0.01623492
0.07262748 0.14241761 -0.048573602 -0.054155212 0.050912227 0.059799127 -0.03203191 0.122898474
0.0921127 0.05850565 -0.18397687 -0.0401361 0.050398998 0.058868755 0.10120624 0.034451038
-0.055394758 -0.009634336 -0.09455662 0.06299065 0.06560182 -0.04104926 -0.18387723 0.04723345
0.09425835 -0.12928207 0.11466891 -0.19663882 -0.044825368 -0.122983724 0.068822265 0.11814529
-0.04418506 -0.012673047 0.099082135 -0.01805739 -0.062902585 0.0139641175 0.011940441 0.14461643
-0.07148806 0.054063972 -0.053940605 0.087711684 0.01815836 -0.07465956 0.06737773 -0.019178558
-0.053156693 -0.038769312 -0.08875489 -0.08540552 0.06221089 0.12027587 -0.0799342 -0.07236292
0.03480938 -0.16376601 0.12871473 -0.047200546 0.039235923 0.058832075 -0.21695372 -0.09650248
-0.16530083 -0.12592126 0.047132432 0.07749572 -0.06847716 0.0652692 0.121514484 -0.016304018
-0.3466671 0.043582894 0.020721061 -0.119061045 -0.029698247 -0.044268366 0.058250464 -0.084141515
00000000: 9c10 a23d 8685 85bd 1cdb c23c 2206 103c
00000010: 9d8d acbc 8cc4 babd a521 19bd 79f6 f3bd
00000020: 7f93 233b 1551 0a3b be82 a53d 9b23 e1bc
00000030: 859a 78be ab80 3e3d 8620 b8bc f21f f13c
00000040: bf6b 093c 5332 1fbe dc95 d03d 98be 143e
00000050: e942 0eba d64f d3bc e37a 78bc 20cf 053d
00000060: 8a14 88bd d6f1 6abb c1c2 0abd c268 bb3d
00000070: 75a1 973d c404 c4bd 39a9 003e 14ad 033e
00000080: 0d56 813d d299 f2bb 1a33 e9ba d269 223e
00000090: f44a 193e 035a a73c f2f6 aebc f509 2abd
000000a0: dc86 093d 6ab6 483d 166b 293d 0aef 2dbd
000000b0: 1634 953d 88d2 1bbd db3f aabd 5e6a 8d3d
000000c0: 4855 d0bc d217 50bd b6b3 be3d 66cf 673d
000000d0: 1f2e 8a3c 9b58 ac3d 7fbf e73d 0141 c13d
000000e0: 4386 21bd 858b abbc 4bb5 e73d 9f1f 1bbb
000000f0: 22e4 713d 7f47 973d be05 08be ca11 b9bd
00000100: c39c 833d 8a63 d7bc 4d0f 4abe f3f3 163e
00000110: 79b5 1bbe 9154 4d3d 3f2a 983c 677b 663c
00000120: 22bb 34bc 80da 3bbc 1d3c aa3d 7dae 09be
00000130: 91b0 8dbb ebc3 eabd 8207 3fbe 23f6 50bd
00000140: 4326 d23c c96c 0ebd f6b6 8abd 3e8a cd3d
00000150: 3ffa 96bd 02c6 23bc f383 82bd 3099 273e
00000160: 28ac 983a f0ef 063e bc54 bf3d 1240 1b3e
00000170: effd 01bd 8f34 42be 78f9 2cbe beab 4b3e
00000180: 8ab3 ad3d 0145 e63d 4908 f93d 4098 ea3d
00000190: a37b dbbc 43ac 57bd 6015 bdbd cac6 9a3d
000001a0: de93 00be d25d aebd 21e9 4a3c 29b1 17be
000001b0: d559 19be 9089 1cbe e31f d1ba 9dc7 9abd
000001c0: f947 7fbd a450 93bd 2c25 75bc 51ec 8b3d
000001d0: 099c 823d 76f7 45be 1ea8 24bc 14da bfbd
000001e0: 96bd ef3d 86a1 d0bb 4a68 7b3d a9d3 803d
000001f0: 7485 99bd 4fcf bb3d 4b82 8ebd 2bf3 443d
00000200: 52fe 60bd 06b8 f63c 7d78 113e 04a5 f2bc
00000210: 103e d9bd 253c 603d b849 88bc 7ea2 643d
00000220: e667 91bc c0e1 11bd da4f 363b c04d 45be
00000230: 4245 81bd 14a0 15be 8176 903b b7fc 4fbd
00000240: cb30 3dbd d612 813c 7ef6 003e b95f 603d
00000250: 0f27 01be d548 3a3d 036f 24bd 8710 86bc
00000260: d71a e6bd f4bf fbbc cdaa 43bd d773 6d3d
00000270: 25a0 70bc 822d 6abd cf0f 85be 9828 a63d
00000280: bc60 8bbd f472 0abe ee2a 8b3d 0c48 f63d
00000290: 49f8 073e f6d2 9cbd 346f 183c 9d5b 1abd
000002a0: 7252 a73d de3b 1dbd 7369 ca3d 912e 1b3e
000002b0: 80dd 78bd 2b4a e9bd f510 d53d 18ff 843c
000002c0: b7bd 943d ecd5 113e 1df5 46bd dbd1 5dbd
000002d0: 5789 503d eeef 743d e433 03bd 32b2 fb3d
000002e0: 95a5 bc3d 9fa3 6f3d 6f64 3cbe c065 24bd
000002f0: 2e6f 4e3d 5d20 713d 3845 cf3d 881c 0d3d
00000300: 9de5 62bd 56d9 1dbc e7a6 c1bd 3e01 813d
00000310: 3f5a 863d 4523 28bd 504a 3cbe dd77 413d
00000320: 860a c13d 8562 04be 89d7 ea3d b05b 49be
00000330: ce9a 37bd e4de fbbd b0f2 8c3d 28f6 f13d
00000340: 65fb 34bd 9da2 4fbc 93eb ca3d 17ed 93bc
00000350: 12d3 80bd c1c9 643c d7a1 433c 5416 143e
00000360: 5568 92bd 2f72 5d3d d3f0 5cbd 2fa2 b33d
00000370: d7c0 943c 1de7 98bd 56fd 893d 5a1c 9dbc
00000380: d5ba 59bd 92cc 1ebd 20c5 b5bd 17e9 aebd
00000390: d9d0 7e3d 3253 f63d 8bb4 a3bd 0333 94bd
000003a0: 4894 0e3d 47b2 27be cbcd 033e 5c55 41bd
000003b0: d9b5 203d e7f9 703d 1e29 5ebe 18a3 c5bd
000003c0: 9f44 29be 81f1 00be f00d 413d 13b6 9e3d
000003d0: c13d 8cbd dcab 853d 96dc f83d 0190 85bc
000003e0: 5a7e b1be fa83 323d 37bf a93c 47d6 f3bd
000003f0: bd49 f3bc bf52 35bd 0a98 6e3d 6352 acbd

model.bsq.down_proj.bias f4 [10]
0.03812734 0.024294717 -0.013914526 0.052347254 -0.01069706 -0.033927746 0.011716189 -0.035447493
-0.017024988 0.053220123
00000000: 6a2b 1c3d b705 c73c c1f9 63bc 136a 563d
00000010: b942 2fbc d2f7 0abd 42f5 3f3c 6431 11bd
00000020: fd77 8bbc 58fd 593d

model.bsq.up_proj.0.weight f4 [128, 10]
-0.16101637 0.047280923 -0.03067624 -0.21133089 0.04403287 -0.0531679 0.16592495 -0.38148272
0.12971546 -0.08265641 -0.08922387 -0.06230647 0.089503564 0.5239579 0.24959752 -0.019291038
0.39316034 -0.11941188 0.07577062 0.2175844 -0.12510166 0.17501819 0.01853932 0.008659267
0.17936318 0.15280187 0.2931103 -0.27837577 -0.24882473 0.057131015 0.22109975 0.10632028
-0.2249015 -0.03951112 -0.0986555 0.24252287 0.042122554 0.2929407 0.11711056 -0.4133573
0.15230605 0.03891274 0.120411254 -0.05009367 -0.32863393 0.014215615 0.058677703 0.18152486
-0.22241758 -0.29970732 -0.143127 0.02532161 0.039211452 0.05190932 0.07918144 0.42089972
0.0094612725 0.15017274 -0.056915075 0.3444914 0.1396656 0.11255183 -0.13576151 -0.12258237
-0.25702673 -0.051573966 -0.045435376 -0.120276965 -0.15148856 -0.29777095 0.21239369 -0.057359215
-0.27706143 0.04396895 -0.024450378 0.034887906 -0.062498797 0.19977038 -0.117505476 -0.29277408
0.08002318 -0.32282862 0.19665432 -0.015946945 0.27696002 0.025250785 -0.30838254 -0.18183187
-0.033942573 0.10204511 0.33593398 -0.23117326 -0.21275407 -0.119001724 0.17243192 -0.081969604
0.039679535 0.077433266 0.10996104 -0.29032028 -0.2588126 -0.041483056 -0.011404085 -0.38410506
-0.11559772 -0.012561725 -0.010685759 -0.07806508 0.041025188 0.10971327 0.0983194 -0.18146273
-0.015558664 -0.025875585 -0.027058449 0.25793603 -0.09695502 -0.05198139 0.29011536 0.20933957
0.10501973 0.095210806 0.201129 0.22247913 -0.07166667 -0.08811467 -0.020905655 -0.113754265
0.18621135 0.27356485 -0.06343013 -0.04296861 -0.18109466 -0.037183024 0.14269488 -0.42923105
-0.24293278 -0.25525182 0.0053510456 0.008734852 0.26035765 -0.106297776 -0.068754405 0.0002474536
0.21354619 -0.036897883 0.10688213 -0.37099576 0.041713804 -0.14660679 0.07239335 0.34700328
-0.13614602 0.029706372 0.14278787 -0.16776305 -0.025133356 0.25149718 0.19519702 -0.14104323
0.16638675 -0.37857333 -0.05581082 -0.050119385 0.46452415 0.20978984 0.052049465 0.050245523
-0.15257746 -0.1411986 0.33366704 -0.06402851 -0.12978415 0.13296849 0.05666972 0.0056172027
-0.23677741 -0.21020561 -0.17647563 0.19302496 -0.10045555 0.2012136 0.09180352 0.18195751
-0.10856619 0.19919783 -0.21702307 -0.23632823 -0.0919137 0.19765097 -0.08705747 0.16496164
-0.23143366 -0.020191988 0.27744308 0.32521045 -0.14988214 0.019142987 -0.005092979 -0.39801502
0.21326426 -0.012961027 0.12846471 0.24512382 0.17291178 -0.31932792 -0.19589072 -0.19387536
0.051107526 0.045280132 0.001814969 0.01678346 0.13955963 -0.25888962 -0.05692578 -0.36797836
-0.25792125 -0.037781984 0.02779991 0.33352557 -0.0056585576 0.2867373 -0.04118104 0.18508273
0.23696212 -0.3070952 -0.15497227 0.32314783 -0.033135697 0.2541083 0.08313584 0.13050589
-0.22162329 -0.16529183 -0.2588474 -0.31182736 0.30574995 -0.18424767 -0.0077739167 -0.06813539
-0.06242936 -0.039483313 -0.12967323 0.119406335 -0.27112436 -0.2001098 -0.21772555 0.04104885
-0.30454487 -0.19500585 0.29175457 0.2564386 -0.09064837 -0.041886095 0.1981741 -0.13866411
00000000: 7ae1 24be a4a9 413d bd4c fbbc 2067 58be
00000010: d05b 343d 95c6 59bd 3be8 293e b451 c3be
00000020: 21d4 043e c447 a9bd 01bb b6bd 1235 7fbd
00000030: a54d b73d 1b22 063f 7e96 7f3e 3d08 9ebc
00000040: 504c c93e 378e f4bd a02d 9b3d 72ce 5e3e
00000050: a61a 00be f837 333e c6df 973c 99df 0d3c
00000060: fbaa 373e 1878 1c3e 8e12 963e 4587 8ebe
00000070: e9cb 7ebe 3602 6a3d f967 623e 72be d93d
00000080: 944c 66be 6ad6 21bd e50b cabd ea57 783e
00000090: b388 2c3d 53fc 953e a9d7 ef3d 91a3 d3be
000000a0: 1ef6 1b3e f762 1f3d 2d9a f63d 052f 4dbd
000000b0: b542 a8be 9ce8 683c 0858 703d a7e1 393e
000000c0: 6fc1 63be 3d73 99be e28f 12be 446f cf3c
000000d0: 309c 203d de9e 543d e129 a23d 2b80 d73e
000000e0: 7403 1b3c e2c6 193e c81f 69bd 2d61 b03e
000000f0: 8004 0f3e 9381 e63d 1105 0bbe 770c fbbd
00000100: 0299 83be 393f 53bd 721a 3abd c553 f6bd
00000110: d11f 1bbe 6f75 98be bb7d 593e 7ff1 6abd
00000120: ffda 8dbe c918 343d 294c c8bc 9fe6 0e3d
00000130: bdfe 7fbd 9b90 4c3e b6a6 f0bd 7ce6 95be
00000140: 31e3 a33d cb49 a5be c05f 493e 2ba3 82bc
00000150: b4cd 8d3e bcda ce3c 51e4 9dbe 2232 3abe
00000160: 5e07 0bbd 07fd d03d 8aff ab3e afb8 6cbe
00000170: 34dc 59be 2db7 f3bd fe91 303e aedf a7bd
00000180: 0287 223d 5595 9e3d 4133 e13d dca4 94be
00000190: 1683 84be 23ea 29bd 33d8 3abc 6ba9 c4be
000001a0: 7fbe ecbd b2cf 4dbc 5213 2fbc 96e0 9fbd
000001b0: 070a 283d 5ab1 e03d ae5b c93d 5ed1 39be
000001c0: c4e9 7ebc 09f9 d3bc aea9 ddbc 3110 843e
000001d0: 5b90 c6bd 70ea 54bd 008a 943e 1d5d 563e
000001e0: 9614 d73d e2fd c23d c3f4 4d3e 92d1 633e
000001f0: fac5 92bd 7775 b4bd 5642 abbc fff7 e8bd
00000200: 30ae 3e3e b110 8c3e a8e7 81bd daff 2fbd
00000210: e170 39be 3a4d 18bd 9b1e 123e 2cc4 dbbe
00000220: 5fc3 78be 5eb0 82be d357 af3b a01c 0f3c
00000230: 994d 853e a6b2 d9bd 1ccf 8cbd a9bc 8139
00000240: daab 5a3e 3c22 17bd 05e5 da3d 28f3 bdbe
00000250: 18dc 2a3d 1720 16be f742 943d 6aaa b13e
00000260: dd69 0bbe c75a f33c fc36 123e 14ca 2bbe
00000270: 78e4 cdbc 3dc4 803e bae1 473e a36d 10be
00000280: 4a61 2a3e 5dd4 c1be e399 64bd fc49 4dbd
00000290: 1cd6 ed3e 26d3 563e d231 553d 40ce 4d3d
000002a0: 443d 1cbe 5e96 10be 68d6 aa3e 6121 83bd
000002b0: 23e6 04be e428 083e 821e 683d 8310 b83b
000002c0: c775 72be 2440 57be 07b6 34be 56a8 453e
000002d0: a4bb cdbd f00a 4e3e 7c03 bc3d 1253 3a3e
000002e0: f357 debd 84fa 4b3e 4c3b 5ebe 0700 72be
000002f0: 403d bcbd 0465 4a3e 304b b2bd b4eb 283e
00000300: f2fc 6cbe ab69 a5bc 050d 8e3e fc81 a63e
00000310: b47a 19be c1d1 9c3c 01e3 a6bb a0c8 cbbe
00000320: f261 5a3e 7d5a 54bc 418c 033e bd01 7b3e
00000330: c90f 313e f37e a3be 9497 48be 4387 46be
00000340: 2056 513d a977 393d 41e4 ed3a 777d 893c
00000350: b8e8 0e3e 2e8d 84be 022b 69bd a967 bcbe
00000360: 410e 84be 48c1 1abd a3bc e33c ddc3 aa3e
00000370: 6c6b b9bb 3bcf 923e 73ad 28bd 5486 3d3e
00000380: 33a6 723e 953b 9dbe 0db1 1ebe a273 a53e
00000390: 4cb9 07bd 7c1a 823e 2043 aa3d 56a3 053e
000003a0: 37f1 62be 4342 29be a587 84be d6a7 9fbe
000003b0: 428b 9c3e 6cab 3cbe 57bc febb 918a 8bbd
000003c0: eeb5 7fbd 41b9 21bd 0fc9 04be 4f8b f43d
000003d0: d0d0 8abe 95e9 4cbe 72f3 5ebe d722 283d
000003e0: 4eed 9bbe 9daf 47be db60 953e ec4b 833e
000003f0: daa5 b9bd c190 2bbd 27ee 4a3e f7fd 0dbe
